tests/artifacts/policies/aloha_sim_insertion_human_act_/actions.safetensors (safetensors, 5104 bytes, 10 tensors)

0 f4 [8, 14]
000000 02 cd 19 bd 97 17 13 be a6 ba 5b 3f 68 fe 32 bd
       -0.037549026 -0.14364468 0.8583168 -0.043699652
000010 f0 11 f1 3e 4a f7 50 bd c0 f3 86 3e 5c 3d 0d be
       0.47083998 -0.051017083 0.26357841 -0.13792938
000020 f0 b2 33 be 26 2d 6b 3f a8 bc 21 bd 4e 52 ad 3e
       -0.17548728 0.91865766 -0.039486557 0.33851856
000030 24 ae 63 3d bc 7f f5 3d c4 2a 30 bd 60 21 0f be
       0.055585995 0.11987254 -0.043009534 -0.13977575
000040 5d 3c 5f 3f 4f c5 42 bd 87 53 f5 3e 9e b1 3f bd
       0.8720148 -0.04755145 0.4791529 -0.04680025
000050 80 ee 87 3e 50 9f 11 be d9 d2 40 be 5e 2c 6b 3f
       0.2654915 -0.14220929 -0.18830432 0.91864574
000060 54 98 3a bd ba 0b b2 3e b8 66 64 3d 4a b2 03 3e
       -0.045555428 0.34774572 0.055762023 0.1286098
000070 48 bb 25 bd 9a 51 14 be 3b 86 5f 3f a0 64 41 bd
       -0.04046181 -0.14484254 0.87314194 -0.047215104
000080 e8 d8 f4 3e d5 07 4e bd 52 98 8c 3e c5 85 13 be
       0.47821736 -0.050300438 0.2745996 -0.14406498
000090 79 24 52 be fe 02 69 3f 1c 6d 47 bd 8a ca b5 3e
       -0.20521726 0.9102019 -0.04868804 0.35506088
0000a0 cc e5 85 3d 5b 1b 03 3e 88 83 1a bd c5 5a 14 be
       0.06537971 0.12803404 -0.037723094 -0.14487751
0000b0 d2 f3 61 3f c8 2e 32 bd 73 73 f0 3e 48 4f 4c bd
       0.88262665 -0.043501645 0.4696308 -0.049880296
0000c0 71 4b 8c 3e 78 76 16 be 22 c3 4d be 62 ff 6b 3f
       0.27401307 -0.1469363 -0.20093969 0.9218656
0000d0 14 fa 4e bd 33 b9 b3 3e b8 55 61 3d d0 08 e9 3d
       -0.05053146 0.35102233 0.05501339 0.11378634
0000e0 a6 f3 23 bd d5 21 1d be f3 2f 5f 3f 65 38 3b bd
       -0.040027283 -0.15344937 0.8718254 -0.04570808
0000f0 bb e6 ee 3e 8d 84 3c bd 59 cc 83 3e 0e 5d 1b be
       0.46660408 -0.046024848 0.25741842 -0.15172216
000100 11 ab 42 be 0a 71 70 3f 64 c7 75 bd 74 b3 b6 3e
       -0.19010569 0.93922484 -0.060004607 0.35683787
000110 f8 e2 8a 3d 36 f2 db 3d d8 54 28 bd 9c d1 1e be
       0.06781572 0.107395574 -0.04109654 -0.15509647
000120 cc 1d 5f 3f fb b8 3f bd 1a 7c ee 3e c1 18 2e bd
       0.8715484 -0.04680727 0.46579057 -0.042504076
000130 5e 4a 83 3e 86 14 1c be a9 d1 3e be 2e e0 70 3f
       0.25642675 -0.15242204 -0.18634667 0.9409207
000140 fc e2 71 bd ca fe b3 3e 8e 9f 92 3d 2e 39 e3 3d
       -0.05905436 0.35155326 0.07159339 0.110948905
000150 98 62 36 bd 12 cb 1b be f7 b7 5e 3f 87 29 42 bd
       -0.04452762 -0.15214184 0.8699946 -0.047402885
000160 94 12 ec 3e cc 51 40 bd ca e6 7a 3e c0 e7 18 be
       0.46107924 -0.046953008 0.24502102 -0.14932156
000170 ba e7 43 be 62 9e 6f 3f b4 8f 4b bd c8 09 b1 3e
       -0.19131365 0.9360105 -0.049697593 0.34577775
000180 c2 88 83 3d ca 8f f4 3d 9c 69 3e bd 82 27 1f be
       0.06422569 0.11941488 -0.046487436 -0.15542415
000190 4a 2f 60 3f fc d6 3c bd b9 7d eb 3e 90 e7 3a bd
       0.8757216 -0.046103463 0.45994356 -0.04563099
0001a0 d9 e0 7c 3e 7e b0 18 be 97 76 3f be 26 3c 70 3f
       0.24695148 -0.14911076 -0.18697582 0.9384178
0001b0 cc e1 53 bd bd da b5 3e 2e 2e 83 3d fe 5a f9 3d
       -0.05172901 0.35518447 0.064052925 0.121755585

1 f4 [8, 14]
000000 c6 2e 32 bd 24 00 1a be f0 b9 5a 3f 4b 70 2a bd
       -0.043501638 -0.15039116 0.8543997 -0.041610997
000010 e5 6d ed 3e a9 cb 53 bd ec 4b 84 3e 4d 8f 0e be
       0.46372905 -0.051707897 0.25839174 -0.13921852
000020 e4 92 2f be e4 01 6d 3f a8 cd 12 bd f1 be ab 3e
       -0.17145878 0.9258101 -0.03584066 0.33544114
000030 24 0e 34 3d d0 c7 fa 3d 50 ce 47 bd 7e b6 14 be
       0.043958798 0.122451425 -0.04878074 -0.1452274
000040 d6 5c 5e 3f d8 b7 3b bd 7a cb f1 3e b0 23 42 bd
       0.86860406 -0.045829624 0.47225553 -0.047397316
000050 c2 73 85 3e c0 8d 12 be 1d 55 3c be 0d 44 6d 3f
       0.2606488 -0.14311886 -0.18391843 0.9268196
000060 e0 2b 2c bd 24 48 b0 3e 3c 0f 39 3d 22 6f 06 3e
       -0.04203403 0.3443004 0.045180544 0.13128331
000070 28 59 3b bd 2c db 19 be a1 12 5f 3f 37 44 3b bd
       -0.045739323 -0.15025014 0.871378 -0.04571935
000080 ef 30 f3 3e 87 90 4c bd ac 5d 8a 3e 7a b1 16 be
       0.4749827 -0.04994252 0.2702459 -0.1471614
000090 26 39 4c be a8 fb 6a 3f 7c 07 42 bd ac 1e b4 3e
       -0.19943675 0.91790247 -0.04737042 0.3517965
0000a0 90 b7 65 3d 00 eb 06 3e 60 58 30 bd 28 35 19 be
       0.056083262 0.13175583 -0.04305303 -0.14961684
0000b0 33 76 61 3f 4c 2f 2c bd 59 6b ee 3e 4f 07 4b bd
       0.8807098 -0.042037293 0.46566275 -0.049567517
0000c0 c7 0d 8a 3e d6 fc 18 be e4 15 48 be a0 f4 6d 3f
       0.26963636 -0.149402 -0.195396 0.92951393
0000d0 0c 6b 4a bd df 60 b1 3e 74 75 37 3d e6 8b ef 3d
       -0.049418494 0.3464422 0.044789746 0.116966054
0000e0 2c 4f 3b bd 3b 15 23 be d5 61 5e 3f ce 6a 32 bd
       -0.0457298 -0.15926068 0.8686803 -0.043558888
0000f0 94 b0 ec 3e 49 18 3b bd 13 5d 81 3e 0e 9a 1c be
       0.46228468 -0.045677457 0.25266322 -0.15293142
000100 b3 35 3d be 74 36 73 3f ec 69 6c bd ca 84 b4 3e
       -0.18477516 0.95004964 -0.057718202 0.3525756
000110 c8 e8 70 3d 7e b9 e3 3d 6e 8a 3e bd ce 44 24 be
       0.058815747 0.11119364 -0.046518736 -0.16041872
000120 eb 56 5e 3f 1b 99 35 bd 26 dc eb 3e 22 56 2d bd
       0.86851376 -0.044335466 0.46066397 -0.04231847
000130 cd 5b 81 3e c3 0a 1e be 0f 5d 38 be d6 68 73 3f
       0.2526535 -0.15433793 -0.18004249 0.9508184
000140 0c 34 6b bd 56 a0 b1 3e e8 69 81 3d b0 f2 e9 3d
       -0.057422683 0.3469264 0.06319028 0.11423242
000150 9c cc 4c bd ba c8 21 be 9a 1f 5e 3f 3e 4f 3b bd
       -0.04999982 -0.15799227 0.8676697 -0.045729868
000160 81 f7 e9 3e b8 36 3d bd 92 01 76 3e 2c 93 1a be
       0.45696643 -0.046194762 0.24024037 -0.15095204
000170 e5 07 3d be f6 fa 71 3f 88 f5 41 bd 36 c4 ae 3e
       -0.18460043 0.9452356 -0.047353297 0.34134072
000180 60 dd 61 3d 8a 3c fc 3d 14 6b 54 bd 90 c0 24 be
       0.05514276 0.123162344 -0.05185993 -0.16089082
000190 28 c7 5f 3f 2e 56 37 bd 83 50 e9 3e f1 f5 36 bd
       0.87413263 -0.04475992 0.45569238 -0.04466814
0001a0 41 55 78 3e fe 8b 1a be f8 92 38 be 10 9e 72 3f
       0.24251272 -0.15092465 -0.18024814 0.94772434
0001b0 c4 9c 4c bd e8 8b b3 3e c0 82 62 3d e6 18 00 3e
       -0.04995419 0.35067677 0.055300474 0.12509498

2 f4 [8, 14]
000000 38 d3 04 bd 48 8e 10 be dd bb 5c 3f ef 33 3a bd
       -0.032427996 -0.14116776 0.86224157 -0.045459684
000010 f6 14 e9 3e 52 31 5f bd 94 8a 87 3e c2 18 0b be
       0.45523804 -0.054490395 0.26472914 -0.13583663
000020 42 1a 34 be c4 e1 6a 3f cc 35 23 bd 80 1f b1 3e
       -0.17588142 0.9175074 -0.039846227 0.34594345
000030 44 0f 67 3d ae 61 d5 3d 76 fa 1b bd 50 8d 0c be
       0.056411043 0.104190215 -0.038080655 -0.13725781
000040 ea e2 5f 3f 24 c3 4b bd a5 e6 ed 3e 60 36 4e bd
       0.8745562 -0.049746647 0.4646503 -0.050344825
000050 f1 14 89 3e 8e 68 0f be db 23 3f be 4a f1 6a 3f
       0.2677379 -0.14004728 -0.18666022 0.9177443
000060 58 aa 39 bd 0a 3d b6 3e 98 47 6c 3d a8 2f e7 3d
       -0.045328468 0.35593444 0.057685465 0.112883866
000070 a2 db 12 bd 26 0b 11 be 01 fe 5f 3f 8b 15 4a bd
       -0.03585399 -0.14164409 0.87496954 -0.04933695
000080 9b 84 ee 3e 4c 2a 5f bd e0 a3 8e 3e 72 59 12 be
       0.46585545 -0.054483697 0.27859402 -0.14291933
000090 c6 d4 50 be f6 a4 68 3f 6c 9d 4b bd 3e 92 b9 3e
       -0.20393667 0.9087671 -0.049710676 0.36244386
0000a0 84 8d 88 3d 08 99 e6 3d 8c 8c 07 bd c2 74 10 be
       0.06667617 0.11259657 -0.03309302 -0.1410704
0000b0 bc 9b 62 3f 77 d2 3b bd 6a 1c ea 3e 72 22 5d bd
       0.8851888 -0.04585501 0.45724803 -0.053987928
0000c0 e7 28 8e 3e 10 8d 14 be 58 4a 4c be 0f a3 6b 3f
       0.2776558 -0.14506936 -0.19950235 0.9204568
0000d0 74 8b 52 bd 2f 8a b7 3e 80 c9 66 3d ee 7c cc 3d
       -0.051402524 0.35847613 0.05634451 0.09984766
0000e0 8c d9 0e bd e7 8b 1a be 3e cc 5f 3f 7c 55 45 bd
       -0.034875438 -0.15092431 0.87421024 -0.048177227
0000f0 83 d9 e8 3e 12 94 50 bd 2a d0 84 3e ac b5 18 be
       0.45478448 -0.05092246 0.25940067 -0.14913052
000100 e5 ea 41 be 04 c3 70 3f 0c 60 7b bd 04 e9 ba 3e
       -0.18937261 0.9404757 -0.061370894 0.36505902
000110 82 5a 89 3d 5e ff c3 3d 4e 45 12 bd e2 75 1c be
       0.06706716 0.09570192 -0.035710625 -0.15279344
000120 81 e0 5f 3f 61 b5 4a bd f9 d6 e7 3e 6e f6 43 bd
       0.8745194 -0.049489383 0.452812 -0.047842436
000130 20 52 84 3e 20 83 19 be 6b 57 3e be 86 33 71 3f
       0.25843906 -0.14991426 -0.18588035 0.94219244
000140 84 bc 77 bd f9 c7 b8 3e 1c 66 92 3d 24 dd ca 3d
       -0.060482517 0.36090067 0.07148382 0.099054605
000150 fa c7 20 bd ca 8e 18 be 31 b0 5f 3f 99 15 4e bd
       -0.039253213 -0.1489822 0.8737822 -0.050313566
000160 db ff e5 3e 23 a5 4f bd c8 f1 7b 3e d4 5b 16 be
       0.44921765 -0.050694596 0.24603951 -0.14683467
000170 57 18 42 be a8 c4 6f 3f 74 27 51 bd 64 ae b5 3e
       -0.18954597 0.9365945 -0.051063016 0.35484612
000180 c4 03 84 3d 96 2e da 3d 12 1e 29 bd 4f 8f 1c be
       0.06446031 0.10653417 -0.041288443 -0.15289043
000190 5c 1d 61 3f d7 76 49 bd 80 77 e5 3e 31 fb 49 bd
       0.87935424 -0.0491856 0.44817734 -0.04931182
0001a0 6b 19 7d 3e 70 16 16 be 22 f6 3c be df 5a 70 3f
       0.24716727 -0.14656997 -0.18453267 0.9388866
0001b0 14 3a 59 bd 1c a3 ba 3e 7a 84 83 3d ac dc dd 3d
       -0.053033903 0.36452568 0.06421752 0.108331054

3 f4 [8, 14]
000000 20 2a 0e bd 4f 93 0d be 9b 49 5c 3f ce e1 3f bd
       -0.034708142 -0.13825725 0.86049813 -0.046846204
000010 36 92 ee 3e 3a de 45 bd 9f fd 85 3e 66 a8 0a be
       0.46595925 -0.048307635 0.2617006 -0.13540801
000020 46 f2 32 be 44 13 6b 3f 70 54 19 bd 3b 1c af 3e
       -0.17475232 0.9182627 -0.03743404 0.34201226
000030 c8 c0 71 3d 32 73 db 3d 96 e4 24 bd bc f9 09 be
       0.05902174 0.10715331 -0.04025706 -0.13474172
000040 e9 d5 5f 3f ab 1d 51 bd 2d 7e f2 3e 8a 02 34 bd
       0.87435776 -0.051053684 0.4736189 -0.043947734
000050 83 56 87 3e 9c ff 0e be 8b 8a 3e be f0 ec 6a 3f
       0.2643319 -0.13964695 -0.18607537 0.9176779
000060 3c e5 2e bd d5 9a b3 3e 78 9f 77 3d 42 9d ec 3d
       -0.042699084 0.35079065 0.060454816 0.11553432
000070 04 54 1b bd 9c 2d 0f be 3f a4 5f 3f 94 e2 4e bd
       -0.03792192 -0.13982242 0.87359995 -0.05050905
000080 1a d4 f2 3e db 46 42 bd d4 64 8c 3e ad 27 11 be
       0.47427446 -0.047430854 0.27420676 -0.14175291
000090 b9 3e 50 be 5e 05 69 3f 6c 9a 3d bd 82 9b b7 3e
       -0.20336427 0.91023815 -0.046289846 0.3586083
0000a0 7a 40 8c 3d 1e 93 e8 3d ea 58 11 bd 62 23 0e be
       0.068482354 0.113561854 -0.035485186 -0.13880685
0000b0 ef 56 62 3f cd 7e 40 bd be f0 ed 3e 51 0a 40 bd
       0.884139 -0.046995927 0.46472734 -0.04688484
0000c0 e9 38 8c 3e 2a f1 13 be 52 6d 4a be e8 f3 6b 3f
       0.2738717 -0.14447466 -0.19768265 0.92169046
0000d0 c4 3b 45 bd 1e b4 b5 3e b0 cb 6d 3d da 05 cb 3d
       -0.0481527 0.3548898 0.05805558 0.099132255
0000e0 cc 30 1c bd d7 e3 17 be 29 ae 5f 3f ab d5 4a bd
       -0.038132474 -0.14833008 0.8737512 -0.049520176
0000f0 d6 70 ed 3e 40 8f 30 bd ed 71 83 3e 3c 83 18 be
       0.4637515 -0.043105364 0.25672856 -0.14893812
000100 46 90 3f be e0 b3 70 3f fc 35 6e bd 20 d4 b7 3e
       -0.1870738 0.9402447 -0.058156952 0.35904026
000110 e0 27 8f 3d dc a8 c5 3d 96 d6 1e bd 61 ca 19 be
       0.069900274 0.09651348 -0.038778864 -0.15018608
000120 88 da 5f 3f 8a 24 52 bd 83 8f ec 3e 9c 7e 23 bd
       0.8744283 -0.051304378 0.4620324 -0.039915666
000130 ae 0c 83 3e b6 de 19 be 55 db 3b be 42 08 71 3f
       0.2559561 -0.15026364 -0.18345387 0.94153225
000140 bc c7 6d bd cc 3c b5 3e 02 6c 97 3d c2 ab cd 3d
       -0.05805181 0.35397947 0.07393648 0.10042526
000150 16 b9 2d bd fa 70 16 be 31 93 5f 3f 1e 51 55 bd
       -0.04241284 -0.14691535 0.8733397 -0.052079313
000160 29 ae ea 3e d1 8d 31 bd 24 5f 79 3e 4f 1b 16 be
       0.45836 -0.043348137 0.243527 -0.14658855
000170 b3 74 3f be 0f c9 6f 3f 84 d3 47 bd fc b2 b2 3e
       -0.18696861 0.93666166 -0.0487857 0.3490218
000180 54 88 8a 3d 36 37 dc 3d e0 f9 34 bd bf ef 19 be
       0.06764284 0.10752718 -0.044183612 -0.15032862
000190 07 2a 61 3f 18 ff 50 bd 13 11 ea 3e 34 d3 2b bd
       0.87954754 -0.051024526 0.45716152 -0.041949466
0001a0 e0 9b 7b 3e 1e 08 16 be 61 9f 3a be fa 7d 70 3f
       0.2457118 -0.14651534 -0.1822486 0.93942225
0001b0 3c fd 4f bd 58 41 b7 3e e0 0a 8a 3d 6e 2e e0 3d
       -0.050778612 0.3579204 0.067403555 0.10946356

4 f4 [8, 14]
000000 b4 52 2e bd 3a 0d 11 be 76 33 5a 3f fc 2b 33 bd
       -0.04255934 -0.14165202 0.85234773 -0.04374312
000010 6b ce ed 3e ca 2f 47 bd 8d cf 84 3e 83 98 04 be
       0.46446547 -0.04862956 0.259396 -0.12948804
000020 0d 61 34 be 74 aa 6d 3f 18 01 e0 bc 4d 20 ae 3e
       -0.17615147 0.92838216 -0.027344272 0.3400902
000030 00 b0 5c 3d 10 13 e4 3d dc 57 44 bd 24 a7 0c be
       0.053878784 0.111364484 -0.04793535 -0.13735634
000040 5b cf 5d 3f a7 04 43 bd de 04 f2 3e 05 d6 33 bd
       0.86644524 -0.04761186 0.47269338 -0.043905277
000050 76 16 86 3e be 3f 09 be f2 0f 40 be 4a fc 6d 3f
       0.2618901 -0.13403222 -0.18756083 0.9296309
000060 e0 29 09 bd ed 84 b1 3e 08 8c 5f 3d 8e 52 f5 3d
       -0.0334872 0.34671727 0.054576904 0.11978637
000070 04 6c 36 bd 60 91 12 be c8 f5 5d 3f a9 99 41 bd
       -0.044536605 -0.14313269 0.8670316 -0.047265682
000080 bc 72 f2 3e 12 6f 3f bd 56 c0 8b 3e 26 ee 0c be
       0.4735316 -0.046736784 0.27295178 -0.13762721
000090 0d 48 52 be 92 6e 6b 3f d0 b7 1f bd 7e ae b6 3e
       -0.20535298 0.9196559 -0.038993657 0.35680002
0000a0 64 0b 84 3d 22 03 f4 3d e8 52 2c bd f8 96 12 be
       0.06447485 0.1191466 -0.042071253 -0.14315403
0000b0 0a 7b 60 3f 74 ef 34 bd a2 e0 ed 3e 21 b8 3f bd
       0.8768774 -0.044173673 0.46460444 -0.04680646
0000c0 b0 67 8b 3e 8a 7c 0f be c7 7e 4e be 22 8b 6e 3f
       0.27227545 -0.14012352 -0.20165549 0.9318105
0000d0 5c 9a 25 bd 49 dc b3 3e 24 d2 59 3d b8 a8 d8 3d
       -0.04043041 0.35129002 0.05317892 0.105790555
0000e0 4e af 35 bd ec 13 1b be e6 9a 5d 3f c7 36 3c bd
       -0.044356637 -0.15144318 0.8656448 -0.045950677
0000f0 07 e6 eb 3e ff bd 31 bd 2f 91 82 3e a6 c2 13 be
       0.46073934 -0.043394085 0.2550139 -0.14429721
000100 30 ef 42 be 78 94 73 3f 2c a2 49 bd 6e ab b6 3e
       -0.19036555 0.9514842 -0.049226925 0.35677665
000110 ec a0 87 3d 08 52 ce 3d 52 a9 39 bd 6c 98 1c be
       0.0662249 0.1007424 -0.045327492 -0.1529252
000120 56 af 5d 3f 41 5d 40 bd 29 0a eb 3e be 3a 24 bd
       0.86595666 -0.046963934 0.4590619 -0.040095083
000130 05 29 82 3e 9c 21 15 be 6a 4a 3d be e8 24 74 3f
       0.2542192 -0.14563602 -0.18485418 0.95368814
000140 94 0f 48 bd 5d 0c b4 3e 2a c0 90 3d 20 ff d4 3d
       -0.04884298 0.35165682 0.070679024 0.10400224
000150 72 5e 47 bd f7 ce 18 be a4 ba 5d 3f 13 87 45 bd
       -0.048674054 -0.14922701 0.86612916 -0.04822452
000160 68 a8 e9 3e 86 e3 33 bd 03 09 78 3e d3 55 11 be
       0.45636296 -0.043918155 0.24222188 -0.14192896
000170 ba 8d 41 be 66 f9 72 3f d0 e4 1a bd 59 67 b1 3e
       -0.1890172 0.949118 -0.03781587 0.3464916
000180 e0 3d 83 3d 4e b2 e3 3d 3a 6f 4e bd 0a c0 1b be
       0.06408286 0.11117993 -0.050399043 -0.15209976
000190 36 4c 5f 3f 7f 55 42 bd f7 11 e9 3e 97 86 2d bd
       0.87225664 -0.047444817 0.4552152 -0.042364683
0001a0 be 01 7a 3e 1c 4f 11 be b6 20 3d be 8b 7b 73 3f
       0.24414727 -0.14190334 -0.1846951 0.95110387
0001b0 d4 65 25 bd 24 0b b6 3e 78 29 83 3d ae 06 e9 3d
       -0.040380314 0.35555375 0.06404394 0.11378227

5 f4 [8, 14]
000000 ba 12 1d bd f7 68 0a be bd 86 5b 3f b4 70 28 bd
       -0.038347937 -0.13516603 0.8575247 -0.041123107
000010 e1 95 ed 3e 3c 6e 4c bd ce 6e 8a 3e 40 5e 0d be
       0.4640341 -0.049909815 0.27037662 -0.13805485
000020 96 a9 2b be 3a 01 6c 3f 60 3f 23 bd 71 ab ac 3e
       -0.1676391 0.9218937 -0.03985536 0.3372455
000030 94 f4 65 3d 90 7a d6 3d 98 e0 33 bd 5e fc 06 be
       0.05614145 0.10472596 -0.04391536 -0.13182208
000040 f4 10 5f 3f d6 d3 39 bd e9 a3 f1 3e 0f f7 3a bd
       0.87135243 -0.045368038 0.47195366 -0.04564577
000050 50 9d 8b 3e 8f fb 11 be aa 5f 39 be f7 d7 6b 3f
       0.27268457 -0.14256118 -0.18102899 0.9212641
000060 cc e9 39 bd 79 c3 b0 3e d8 0c 68 3d 68 5e ec 3d
       -0.04538898 0.34524134 0.056652874 0.11541444
000070 fa 49 29 bd 57 4b 0b be ac 21 5f 3f e4 2b 39 bd
       -0.041330315 -0.13602959 0.87160754 -0.045207873
000080 18 d4 f1 3e ff d5 49 bd 66 33 90 3e a7 4d 14 be
       0.47232127 -0.04927635 0.28164214 -0.14482747
000090 cc 40 4b be 5a 72 69 3f 1c 68 48 bd 15 fe b4 3e
       -0.19848937 0.9119011 -0.04892741 0.353501
0000a0 b2 b8 87 3d 2a 11 e6 3d 1a a5 1d bd 89 13 0b be
       0.06627025 0.112337425 -0.03848753 -0.13581671
0000b0 28 ad 61 3f bb c1 29 bd 5f b2 ec 3e 58 85 4b bd
       0.8815484 -0.04144452 0.46229836 -0.049687713
0000c0 4b 94 8f 3e 90 08 17 be 3a 22 47 be ca 6f 6c 3f
       0.28042826 -0.1474936 -0.1944665 0.92358077
0000d0 24 fb 4c bd 34 5f b3 3e 20 6a 62 3d 9a 27 c9 3d
       -0.050044194 0.35033572 0.05527699 0.098220065
0000e0 e6 77 26 bd 7c 8e 13 be 2e 2c 5f 3f ca 8a 35 bd
       -0.040641688 -0.14409822 0.8717679 -0.044321813
0000f0 16 a3 eb 3e 3a e8 36 bd 58 1a 87 3e 3d 15 1b be
       0.46022862 -0.044655062 0.26387286 -0.1514482
000100 62 78 3a be e4 6d 71 3f 54 15 74 bd 85 6d b5 3e
       -0.18209985 0.94308305 -0.059590653 0.3543512
000110 36 65 8b 3d ac b6 bf 3d 1e a9 2a bd 54 e1 14 be
       0.06806414 0.09361014 -0.04166519 -0.14539081
000120 de 20 5f 3f ca 58 39 bd e2 f5 ea 3e 6b 7b 28 bd
       0.87159526 -0.04525069 0.4589072 -0.041133326
000130 cc bf 86 3e 5d 40 1c be 76 dc 35 be 7c c3 71 3f
       0.26318204 -0.15258928 -0.1775988 0.9443891
000140 4c ad 70 bd 1d 4f b3 3e 78 a5 95 3d 04 a1 c7 3d
       -0.05875902 0.35021296 0.07306951 0.09747508
000150 4e 57 3a bd da da 12 be 4d ae 5e 3f 9e 8a 3d bd
       -0.045493416 -0.14341298 0.8698471 -0.046274774
000160 ee e0 e8 3e 95 96 39 bd fe 54 80 3e de 51 18 be
       0.45484108 -0.04530962 0.25064844 -0.1487498
000170 74 0d 3b be 40 a6 70 3f ec de 4a bd 05 25 b0 3e
       -0.1826685 0.9400368 -0.049529 0.34403244
000180 44 a0 86 3d 56 9f d9 3d 64 4b 41 bd b5 ec 15 be
       0.06573537 0.10626094 -0.04719104 -0.14641078
000190 8e 45 60 3f f2 73 39 bd ce 4a e8 3e bd 45 33 bd
       0.8760613 -0.04527659 0.4536957 -0.04376768
0001a0 a0 49 81 3e c4 f5 17 be 34 a2 36 be 62 36 71 3f
       0.25251484 -0.14839846 -0.17835313 0.94223607
0001b0 7c 03 53 bd 3c d4 b4 3e 1a de 86 3d a8 31 de 3d
       -0.051516995 0.35318172 0.06585331 0.10849315

6 f4 [8, 14]
000000 ac 3d 22 bd b6 1f 10 be 3d 32 5b 3f 94 fc 2a bd
       -0.039609596 -0.14074597 0.8562353 -0.041744784
000010 07 0d eb 3e 09 3f 50 bd a7 e0 85 3e ee 54 0d be
       0.45908377 -0.050841365 0.2614796 -0.1380193
000020 bc b3 2f be 28 d2 6d 3f a4 19 20 bd 2a 79 ad 3e
       -0.17158407 0.928988 -0.039086953 0.33881503
000030 20 98 37 3d c2 20 df 3d f2 e5 3a bd 32 38 0c be
       0.044822812 0.1089492 -0.04562945 -0.13693312
000040 b4 4d 5e 3f 33 4b 3c bd 97 71 ef 3e 37 71 3b bd
       0.86837316 -0.045970153 0.4676635 -0.045762267
000050 91 09 87 3e e3 3c 11 be 8c 53 3c be f3 23 6e 3f
       0.26374486 -0.14183383 -0.18391246 0.93023604
000060 c4 f8 33 bd 9a 96 b1 3e ac 8b 3e 3d a6 c3 f5 3d
       -0.043938413 0.34685212 0.04651992 0.120002076
000070 0a 43 32 bd 50 14 13 be 89 d4 5e 3f 12 40 3c bd
       -0.043520965 -0.14363217 0.8704305 -0.04595954
000080 fe bf f0 3e a3 73 46 bd 34 2c 8c 3e 9a b4 13 be
       0.47021478 -0.048450124 0.27377474 -0.14424363
000090 b4 a6 4d be b8 f9 6b 3f 38 7d 43 bd a3 02 b5 3e
       -0.20083123 0.92177916 -0.04772684 0.35353574
0000a0 20 f8 63 3d 30 05 ef 3d 7c 39 28 bd d4 e2 12 be
       0.055656552 0.11670911 -0.041070446 -0.1434434
0000b0 b6 56 61 3f 99 35 2b bd d5 b7 eb 3e 4d c5 45 bd
       0.88022935 -0.04179916 0.4603869 -0.048283864
0000c0 ac 2c 8c 3e ec b8 16 be 62 d3 47 be 58 fe 6e 3f
       0.27377832 -0.1471898 -0.1951423 0.9335685
0000d0 f4 02 4c bd 77 e5 b2 3e 24 64 38 3d 94 45 d4 3d
       -0.049807504 0.34940693 0.045017377 0.103648335
0000e0 fc 74 2f bd e9 71 1a be c4 4e 5e 3f d9 0b 36 bd
       -0.042836174 -0.15082516 0.86838937 -0.044444893
0000f0 b9 e1 e9 3e 4b 7d 38 bd 6f e9 82 3e 96 01 1b be
       0.45680025 -0.045041364 0.2556872 -0.15137324
000100 6f 90 3c be 74 cf 73 3f c4 8d 74 bd e1 a6 b7 3e
       -0.18414472 0.95238423 -0.05970551 0.35869506
000110 90 2b 71 3d 3e 73 c6 3d 22 3f 34 bd 98 ed 1b be
       0.058879435 0.096899495 -0.04400552 -0.15227354
000120 9d 50 5e 3f 9e 2f 3b bd cc 9a e9 3e be 81 2b bd
       0.86841756 -0.04569971 0.45625913 -0.04187178
000130 3d 88 82 3e a2 ce 1b be c8 8f 37 be 3a 4b 74 3f
       0.25494567 -0.15215543 -0.17925942 0.95427287
000140 94 19 70 bd 46 1d b5 3e 76 4b 80 3d be 8f cd 3d
       -0.058618143 0.35373896 0.06264393 0.10037182
000150 70 17 42 bd a2 3c 19 be 01 4b 5e 3f 8e 40 3f bd
       -0.047385633 -0.14964536 0.86833197 -0.046692424
000160 e4 f5 e7 3e 03 54 3a bd 32 6f 77 3e ba 86 18 be
       0.45304787 -0.045490276 0.24163511 -0.14895144
000170 dc 42 3c be d3 ab 72 3f 7c 5a 4c bd 0f a6 b1 3e
       -0.1838488 0.9479343 -0.04989098 0.34697005
000180 30 f1 61 3d 94 08 dd 3d 38 63 49 bd 6e a1 1c be
       0.055161655 0.10792652 -0.049166888 -0.15295956
000190 a5 e7 5f 3f 09 fb 39 bd 2c 60 e7 3e 5a 97 31 bd
       0.87462837 -0.04540542 0.4519056 -0.04335723
0001a0 55 ac 79 3e 8f bc 18 be 07 3d 37 be d0 6c 73 3f
       0.24382146 -0.1491568 -0.17894374 0.9508791
0001b0 6c c1 53 bd 4d 54 b6 3e 60 f2 61 3d e8 f4 e0 3d
       -0.051698133 0.3561119 0.055162787 0.10984212

7 f4 [8, 14]
000000 60 58 2f bd 87 4f 12 be 65 85 5a 3f b5 06 38 bd
       -0.04280889 -0.1428815 0.85359794 -0.04492827
000010 b8 2a f0 3e 96 31 41 bd 17 fb 86 3e 0a d3 06 be
       0.46907592 -0.04716643 0.2636344 -0.13166443
000020 36 98 32 be d9 b8 6d 3f 10 77 ec bc 5b 7c a8 3e
       -0.17440876 0.9286018 -0.028865367 0.32907376
000030 b8 dd 58 3d ee c7 e3 3d ae 52 45 bd d9 b8 0d be
       0.052945822 0.11122118 -0.048174553 -0.13840045
000040 bd df 5d 3f 65 5a 48 bd 19 7b f4 3e 9d 92 2e bd
       0.8666952 -0.048914332 0.47750166 -0.04262029
000050 fa fa 87 3e 86 22 0b be 7e 2d 3e be 39 f7 6d 3f
       0.26558667 -0.13587388 -0.18572041 0.92955357
000060 fc 94 0f bd 9c ab ac 3e 3c 49 5e 3d 3e 90 f6 3d
       -0.035054192 0.33724678 0.05426906 0.12039231
000070 e2 b8 36 bd 9c b0 10 be 98 d0 5d 3f 81 ec 46 bd
       -0.04460991 -0.14129871 0.86646414 -0.04856539
000080 d1 59 f3 3e f2 82 3e bd 8b a5 8c 3e c8 af 0e be
       0.47529462 -0.046511598 0.2747005 -0.13934243
000090 db bd 4f be 76 e7 6a 3f 14 69 26 bd 69 34 b1 3e
       -0.20287268 0.9175943 -0.040627554 0.34610298
0000a0 b4 ce 84 3d 3e 97 fa 3d e0 ae 2c bd c8 b4 10 be
       0.06484738 0.122358784 -0.04215896 -0.14131463
0000b0 3b 7d 60 3f 1f 82 3c bd 76 a1 ee 3e fc 3c 3d bd
       0.87691087 -0.04602253 0.4660756 -0.046200737
0000c0 e1 58 8c 3e 00 25 11 be 2d ae 4c be 50 72 6e 3f
       0.2741156 -0.1417427 -0.19988318 0.9314318
0000d0 f4 b4 2c bd 7b 89 ae 3e 54 97 59 3d bc ac dc 3d
       -0.042164758 0.34089264 0.053122833 0.10775134
0000e0 f2 52 34 bd fa 84 19 be 61 91 5d 3f 7c a1 40 bd
       -0.044024415 -0.14992133 0.86549956 -0.047029004
0000f0 8b 4f ed 3e c3 be 30 bd 80 50 84 3e a8 6f 14 be
       0.4634975 -0.043150675 0.25842667 -0.14495718
000100 36 a4 3f be 42 1c 73 3f 2c 7b 50 bd 67 ac b1 3e
       -0.18714985 0.94964993 -0.050898716 0.34701845
000110 e6 99 87 3d a2 5e d0 3d 28 5d 38 bd f8 6b 1b be
       0.06621151 0.101743 -0.045010716 -0.15177906
000120 4c c1 5d 3f 73 0e 47 bd c9 cb ec 3e 07 f7 23 bd
       0.8662307 -0.048597764 0.46249226 -0.040030506
000130 a7 ee 83 3e 18 d0 15 be ea 11 3b be fe ce 73 3f
       0.25768015 -0.14630163 -0.18268552 0.9523772
000140 44 c6 4c bd ac 00 af 3e 1e e0 8e 3d d8 26 d5 3d
       -0.04999377 0.341802 0.06976341 0.104077995
000150 8c 2a 46 bd 3a c9 16 be 3a 85 5d 3f 15 60 4c bd
       -0.04838042 -0.147252 0.8653141 -0.04989632
000160 84 39 eb 3e 28 d6 31 bd 36 46 7c 3e 50 17 12 be
       0.45942318 -0.043417126 0.24636158 -0.14266706
000170 0e ff 3d be cf 80 72 3f 28 c2 25 bd 52 e7 ab 3e
       -0.18554327 0.94727796 -0.040468365 0.3357492
000180 24 e7 80 3d 58 3a e1 3d d0 c5 4b bd 94 d6 19 be
       0.062940866 0.10997456 -0.049749196 -0.15023261
000190 44 27 5f 3f cb 50 48 bd a1 6a ea 3e b1 5a 2b bd
       0.8716929 -0.048905175 0.45784476 -0.041834537
0001a0 39 44 7e 3e 17 f9 11 be f2 e8 38 be 1c fa 72 3f
       0.24830712 -0.14255176 -0.18057612 0.94912887
0001b0 c8 ea 2f bd 20 c5 b0 3e 94 bc 80 3d 4a ac e6 3d
       -0.042948514 0.34525394 0.062859684 0.1126333

8 f4 [8, 14]
000000 ac b4 06 bd 0f ae 0a be ed 9a 5c 3f 00 e6 3b bd
       -0.032887146 -0.1354296 0.861739 -0.045873642
000010 2c 04 ee 3e 38 9e 4f bd 4a fa 87 3e 61 17 0d be
       0.46487558 -0.050688 0.26558143 -0.1377845
000020 32 2d 35 be 4a 15 6b 3f 1c d6 28 bd 7f 35 ac 3e
       -0.17693022 0.9182936 -0.041219816 0.33634564
000030 9c d4 54 3d aa 66 cc 3d 2e 4b 1f bd ee 12 08 be
       0.051960573 0.09980519 -0.038890056 -0.13288471
000040 f0 e8 5f 3f b0 37 4c bd 94 4c f2 3e 1b fa 3c bd
       0.8746481 -0.049857795 0.4732405 -0.046136957
000050 0e 54 89 3e 0a 5c 11 be 32 2f 42 be c0 4b 6b 3f
       0.2682194 -0.14195266 -0.18963316 0.9191246
000060 d8 8a 3e bd 2c b5 b0 3e e4 5f 59 3d 2e 7d df 3d
       -0.04651913 0.34513223 0.053069964 0.10912548
000070 84 d5 14 bd 6d d9 0b be d8 ac 5f 3f d3 d8 4c bd
       -0.036336437 -0.1365716 0.87373114 -0.050011467
000080 34 09 f2 3e 09 fd 4e bd 97 7d 8e 3e 6f d6 12 be
       0.47272646 -0.050534282 0.27830192 -0.14339612
000090 a5 88 54 be 48 14 69 3f ac 20 4c bd 30 ed b4 3e
       -0.20755251 0.9104657 -0.049835846 0.3533721
0000a0 ac 07 82 3d 18 ad db 3d 46 d3 0b bd d6 b6 0b be
       0.063491195 0.107263744 -0.034137033 -0.13643965
0000b0 2e 66 62 3f 3e 35 3e bd 4a f3 ec 3e cd 67 4e bd
       0.88437164 -0.046437494 0.46279365 -0.05039196
0000c0 57 9f 8d 3e f1 2c 16 be 33 ec 50 be 68 4e 6c 3f
       0.2766063 -0.14665581 -0.20402603 0.9230714
0000d0 bc 81 53 bd b1 d9 b2 3e a8 ff 57 3d b0 39 bf 3d
       -0.051637396 0.3493171 0.052734047 0.09337175
0000e0 e8 b6 15 bd 90 02 14 be 33 ae 5f 3f b8 b3 49 bd
       -0.036551386 -0.14454103 0.8737518 -0.04924366
0000f0 55 67 eb 3e dc 41 3e bd 55 dc 84 3e 7f 0d 1b be
       0.45977274 -0.046449527 0.2594935 -0.15141867
000100 84 9e 43 be c9 df 70 3f 94 80 7e bd 0f cc b4 3e
       -0.19103438 0.9409147 -0.06213434 0.35311934
000110 cc 11 81 3d 36 e7 b3 3d b2 75 19 bd 1d c3 15 be
       0.063022226 0.08784334 -0.03746576 -0.14625211
000120 44 aa 5f 3f ad aa 4d bd e7 bb ea 3e f0 d5 2f bd
       0.8736918 -0.050211597 0.45846483 -0.042928636
000130 bd 93 84 3e 5c 11 1c be 64 c9 3f be 53 54 71 3f
       0.25893965 -0.15240997 -0.18729168 0.94269294
000140 14 40 7a bd 4b 9c b2 3e de 8d 89 3d c4 15 ba 3d
       -0.061096266 0.34884867 0.06716512 0.09086183
000150 9c f0 26 bd 00 9f 13 be 56 89 5f 3f c9 a8 53 bd
       -0.040756807 -0.14416122 0.87318933 -0.051674638
000160 f4 77 e9 3e 8d 73 3d bd 52 12 7c 3e cb aa 17 be
       0.4559933 -0.046252776 0.24616364 -0.14811246
000170 51 c0 43 be 04 1f 70 3f 04 7a 54 bd 38 4b af 3e
       -0.19116332 0.93797326 -0.051874176 0.34237075
000180 2c 9a 75 3d 2e 70 cb 3d 26 c5 2d bd dc 20 17 be
       0.059961483 0.09933506 -0.042424344 -0.14758629
000190 33 0c 61 3f 2f 64 4f bd 07 f0 e8 3e 8d 0f 37 bd
       0.8790924 -0.050632652 0.45495626 -0.044692565
0001a0 93 18 7e 3e 7e 87 17 be 60 08 3f be b6 bf 70 3f
       0.24814062 -0.1479778 -0.18655539 0.9404253
0001b0 cc bd 5b bd 80 fd b3 3e 54 73 75 3d 26 cc cd 3d
       -0.0536478 0.35154343 0.05992444 0.10048704

9 f4 [8, 14]
000000 86 03 1d bd a4 ac 0d be 1c 78 5b 3f 8c 18 31 bd
       -0.03833344 -0.13835388 0.8573015 -0.0432363
000010 97 47 ed 3e bf 1c 3d bd bc 2c 87 3e 76 57 08 be
       0.4634368 -0.046169993 0.26401317 -0.13314614
000020 d2 81 2f be 43 62 6d 3f 4c 85 0a bd fd f9 a9 3e
       -0.17139366 0.9272806 -0.033818528 0.33198538
000030 ec 37 50 3d 9c fd c9 3d 16 b0 33 bd 41 4a 0a be
       0.05083458 0.09862825 -0.0438691 -0.13504888
000040 ea c2 5e 3f 1b e7 43 bd 1c 59 f1 3e 30 73 2b bd
       0.87016165 -0.04782782 0.47138298 -0.0418579
000050 c4 07 88 3e 0d 74 0c be 40 c0 3c be 92 7d 6d 3f
       0.26568425 -0.13716145 -0.18432713 0.9276973
000060 c8 32 21 bd 43 1b ae 3e 5c 49 54 3d 58 a2 dc 3d
       -0.03935507 0.34005174 0.051827773 0.10773152
000070 bc dd 29 bd b4 4c 10 be 5d c8 5e 3f c2 3e 43 bd
       -0.041471228 -0.1409176 0.8702448 -0.047667272
000080 84 ac f2 3e 71 c5 3b bd 7e 86 8d 3e 82 96 0f be
       0.47397244 -0.04584259 0.27641672 -0.14022258
000090 47 d4 4f be 5a cf 6a 3f dc de 30 bd 7e cc b1 3e
       -0.20295821 0.91722643 -0.043181285 0.34726328
0000a0 0c 6f 7a 3d fa d0 d6 3d a0 02 1f bd ca 6d 0f be
       0.06114106 0.10489078 -0.038820863 -0.14006725
0000b0 08 63 61 3f 27 58 35 bd 36 6d ed 3e ea 50 3c bd
       0.88041735 -0.04427352 0.46372384 -0.045975603
0000c0 ab 07 8d 3e 3c 18 12 be 24 26 4b be a4 26 6e 3f
       0.27544913 -0.14267057 -0.19838768 0.9302771
0000d0 84 4a 39 bd 7f 0f b0 3e 48 6d 51 3d 50 19 ba 3d
       -0.04523708 0.34386823 0.05112961 0.09086859
0000e0 52 26 27 bd 75 98 18 be 2e ab 5e 3f fd fc 3d bd
       -0.04080803 -0.14901908 0.8697995 -0.046383847
0000f0 8e f3 eb 3e 07 ef 28 bd 78 ae 83 3e bd 40 16 be
       0.46084255 -0.04124358 0.25719047 -0.14673133
000100 8e f8 3d be c6 44 73 3f 84 1b 63 bd 43 f0 b3 3e
       -0.18551847 0.95026815 -0.055446163 0.35144243
000110 72 66 83 3d b0 0c ad 3d b0 68 2b bd d6 68 1a be
       0.06416024 0.084496856 -0.041847885 -0.15079054
000120 0e b5 5e 3f 67 50 43 bd dd 7a eb 3e 4c 26 1c bd
       0.8699502 -0.0476841 0.45992175 -0.03812246
000130 a9 42 83 3e 64 61 17 be 18 3e 39 be 48 d7 73 3f
       0.25636795 -0.14783245 -0.18090093 0.9525037
000140 2c 5e 60 bd 35 c9 b1 3e 06 a0 8b 3d 62 90 b5 3d
       -0.05477731 0.3472382 0.068176314 0.088654295
000150 c6 24 3a bd 26 67 18 be b4 95 5e 3f c4 79 46 bd
       -0.045445226 -0.14883098 0.8694718 -0.04845597
000160 7f c6 e9 3e 0a 99 2a bd de 5d 79 3e 6f cb 13 be
       0.45659253 -0.041649856 0.24352214 -0.14433073
000170 97 b5 3d be b1 05 72 3f 04 a8 35 bd 66 86 ae 3e
       -0.18526302 0.94539934 -0.044349685 0.34086913
000180 d0 af 79 3d 90 48 c5 3d 7c f6 40 bd 94 81 1b be
       0.060958683 0.09632981 -0.047110066 -0.15186149
000190 86 31 60 3f 22 a6 41 bd d4 5b e9 3e fc 05 24 bd
       0.87575567 -0.047277577 0.45577872 -0.04004477
0001a0 90 b2 7b 3e fe cc 13 be 63 15 39 be 66 b2 72 3f
       0.24579835 -0.14433667 -0.18074565 0.94803464
0001b0 68 96 3e bd 6d 55 b3 3e 64 cc 79 3d 50 8f c9 3d
       -0.046530157 0.35026112 0.060985938 0.09841788
