tests/artifacts/policies/aloha_sim_insertion_human_act_1000_steps/actions.safetensors (safetensors, 515400 bytes, 1000 tensors)

0 f4 [8, 14]
-0.02817732 -0.3367998 0.689009 -0.017484268 0.3792225 -0.058867663 0.22820358 -0.08370869
-0.2546686 0.7112195 0.10769118 0.5893681 -0.2472597 0.4949615 -0.028715787 -0.3359012
0.68367773 -0.019033544 0.37810135 -0.05639481 0.22245733 -0.086836666 -0.25484717 0.7146001
0.09767715 0.58279926 -0.24039328 0.493639 -0.030390566 -0.3369081 0.69772345 -0.018064909
0.37515235 -0.061028756 0.23777735 -0.08255908 -0.26801842 0.7228268 0.10550641 0.57423335
-0.22928777 0.4801499 -0.03167642 -0.33469337 0.69564253 -0.019666946 0.3705111 -0.060441393
0.2308164 -0.08750973 -0.25887546 0.7172855 0.105187505 0.56567466 -0.21339664 0.4829528
-0.029549433 -0.32989514 0.6945476 -0.011529926 0.36325818 -0.055153817 0.22782817 -0.092931844
-0.22244136 0.69884 0.11764053 0.5659604 -0.2425252 0.48428637 -0.031360157 -0.32541776
0.6919558 -0.011720566 0.3603933 -0.049091626 0.23513773 -0.09154437 -0.22126956 0.69463646
0.12005658 0.5584012 -0.24709639 0.49406737 -0.02785105 -0.32933533 0.68842214 -0.013524153
0.36311054 -0.052864283 0.22221035 -0.09455316 -0.23571742 0.708244 0.11608097 0.571603
-0.24004129 0.5003466 -0.028591523 -0.32805073 0.6855834 -0.013222484 0.35902664 -0.05026398
0.22593841 -0.09262523 -0.23279232 0.7141845 0.11705977 0.56680936 -0.2360704 0.49745777
00000000: 1fd4 e6bc 0671 acbe e562 303f 2b3b 8fbc
00000010: 7429 c23e 381f 71bd 33ae 693e 766f abbd
00000020: ec63 82be 7b12 363f 328d dc3d d4e0 163f
00000030: a631 7dbe 986b fd3e 5f3d ebbc 3efb abbe
00000040: 8105 2f3f 3cec 9bbc 8096 c13e 3ffe 66bd
00000050: dbcb 633e 6cd7 b1bd 547b 82be 08f0 363f
00000060: f50a c83d 5532 153f a829 76be 40be fc3e
00000070: a3f5 f8bc 387f acbe 019e 323f dcfc 93bc
00000080: f813 c03e 4af9 79bd e87b 733e bc14 a9bd
00000090: b639 89be 2d0b 393f bf13 d83d f500 133f
000000a0: 6aca 6abe 35d6 f53e 22bf 01bd ee5c abbe
000000b0: a115 323f 931c a1bc a2b3 bd3e 6591 77bd
000000c0: 225b 6c3e 4d38 b3bd 538b 84be 06a0 373f
000000d0: 8c6c d73d 0ed0 103f a684 5abe 9745 f73e
000000e0: a711 f2bc 04e8 a8be dfcd 313f 04e8 3cbc
000000f0: fafc b93e f8e8 61bd ca4b 693e 0d53 bebd
00000100: abc7 63be 2ee7 323f 85ed f03d c8e2 103f
00000110: 8758 78be 62f4 f73e 8273 00bd 289d a6be
00000120: 0424 313f 9e07 40bc 7885 b83e 4d14 49bd
00000130: f2c7 703e 9d7b bbbd 7d94 62be b2d3 313f
00000140: 39e0 f53d 62f3 0e3f d606 7dbe 66f6 fc3e
00000150: e327 e4bc a49e a8be 6f3c 303f 6994 5dbc
00000160: a0e9 b93e 3888 58bd 1c8b 633e 16a5 c1bd
00000170: e85f 71be 7b4f 353f dcbb ed3d 9354 123f
00000180: 62cd 75be b716 003f c538 eabc 44f6 a7be
00000190: 6582 2f3f 1ea3 58bc 57d2 b73e 9ae1 4dbd
000001a0: 665c 673e 4cb2 bdbd 1c61 6ebe ccd4 363f
000001b0: 08bd ef3d 6b1a 113f 70bc 71be c9b2 fe3e

1 f4 [8, 14]
-0.031161299 -0.33990735 0.6875435 -0.015932553 0.3767318 -0.061626293 0.23426707 -0.089136645
-0.26339155 0.71392167 0.10867422 0.58619106 -0.2377466 0.48390847 -0.03174199 -0.33961472
0.68280184 -0.017587416 0.37639192 -0.059391093 0.22827195 -0.09215095 -0.2641615 0.71841913
0.09923933 0.5803119 -0.23175302 0.48380116 -0.033453137 -0.33945185 0.69645125 -0.016817871
0.37321907 -0.06423323 0.24406525 -0.08735749 -0.27599847 0.72603613 0.10666614 0.5708912
-0.22110066 0.47221956 -0.035423376 -0.33687177 0.69539744 -0.018010253 0.3679717 -0.063569084
0.2369642 -0.09138442 -0.2684629 0.7201614 0.106223084 0.5623913 -0.20481446 0.4757498
-0.033000663 -0.33178765 0.6925537 -0.0101168845 0.3602453 -0.058306884 0.2330018 -0.097282134
-0.2318878 0.70354414 0.12025168 0.5627363 -0.23392951 0.47879714 -0.035197258 -0.3278082
0.6896392 -0.010369932 0.3578173 -0.052100446 0.2395994 -0.095563434 -0.22990955 0.69880784
0.12219834 0.55496335 -0.23826729 0.48770684 -0.031538732 -0.3319233 0.68716216 -0.012232937
0.3608474 -0.055648495 0.22745074 -0.098914504 -0.24387483 0.7127592 0.11902754 0.5684267
-0.23075113 0.49239904 -0.03240391 -0.33084923 0.68415326 -0.012091725 0.35662037 -0.05307325
0.23164672 -0.09695149 -0.24179214 0.7188236 0.11974574 0.5638157 -0.2264218 0.4894628
00000000: fb45 ffbc 5608 aebe da02 303f fc84 82bc
00000010: fee2 c03e da6b 7cbd b5e3 6f3e 468d b6bd
00000020: 42db 86be 92c3 363f 9790 de3d 9e10 163f
00000030: d873 73be dac2 f73e e403 02bd fbe1 adbe
00000040: 1acc 2e3f 7c13 90bc 71b6 c03e 1344 73bd
00000050: 1fc0 693e a3b9 bcbd 2d40 87be 51ea 373f
00000060: fd3d cb3d 528f 143f aa50 6dbe c9b4 f73e
00000070: 2806 09bd a2cc adbe a14a 323f a2c5 89bc
00000080: 9216 bf3e b68c 83bd 3eec 793e 7ce8 b2bd
00000090: ac4f 8dbe 81dd 393f c773 da3d ed25 123f
000000a0: 3668 62be c3c6 f13e 1a18 11bd 757a acbe
000000b0: 9105 323f 3d8a 93bc c966 bc3e 8230 82bd
000000c0: bea6 723e c127 bbbd f873 89be 7f5c 383f
000000d0: 7d8b d93d e0f8 0f3f e2ba 51be 7a95 f33e
000000e0: b42b 07bd 12e0 a9be 334b 313f 4ac1 25bc
000000f0: 1272 b83e 33d3 6ebd 0698 6e3e db3b c7bd
00000100: ff73 6dbe 781b 343f 8346 f63d 7c0f 103f
00000110: 388b 6fbe e624 f53e 002b 10bd 7ad6 a7be
00000120: 328c 303f a6e6 29bc d433 b73e 4767 55bd
00000130: 8c59 753e c3b6 c3bd 696d 6bbe 12e5 323f
00000140: 2043 fa3d 1412 0e3f 57fc 73be b6b4 f93e
00000150: c22e 01bd daf1 a9be dce9 2f3f a86c 48bc
00000160: fec0 b83e adef 63bd d9e8 683e b093 cabd
00000170: 53ba 79be 6377 363f b6c4 f33d 6a84 113f
00000180: 064a 6cbe ba1b fc3e f6b9 04bd 1265 a9be
00000190: ab24 2f3f 5f1c 46bc f296 b63e 5663 59bd
000001a0: cc34 6d3e 818e c6bd 5c98 77be d304 383f
000001b0: 413d f53d 3a56 103f 1edb 67be de9a fa3e

10 f4 [8, 14]
-0.03057727 -0.334679 0.68085456 -0.018979121 0.38896993 -0.06399184 0.22734155 -0.091039285
-0.2702911 0.7193872 0.114921145 0.5850036 -0.23301774 0.4839645 -0.031051533 -0.33396783
0.6766835 -0.020241091 0.3879191 -0.061799 0.22192013 -0.09413903 -0.27099222 0.7228218
0.10569329 0.57999194 -0.22612423 0.48406184 -0.032517478 -0.33462036 0.689985 -0.020324826
0.38484642 -0.06613427 0.23880982 -0.08928402 -0.28228575 0.73217434 0.112765655 0.5694805
-0.21535373 0.46944 -0.034332663 -0.33282983 0.68887573 -0.021649 0.3789385 -0.065636665
0.23215896 -0.093621016 -0.27300763 0.7255344 0.1127455 0.5614362 -0.19889349 0.47363248
-0.03145224 -0.3266592 0.6875938 -0.013331538 0.37176007 -0.060238753 0.22641508 -0.099614635
-0.2371627 0.7065689 0.12516698 0.56389195 -0.22978726 0.47688818 -0.03340309 -0.32145286
0.6850509 -0.013247501 0.36987722 -0.054644756 0.2329203 -0.09873333 -0.23587994 0.7022539
0.12719917 0.55689055 -0.23379372 0.4859144 -0.02973525 -0.3249805 0.68267655 -0.015299195
0.3727163 -0.058090016 0.22024466 -0.10207187 -0.2494249 0.7154243 0.12501913 0.56896275
-0.22681344 0.4901942 -0.030533923 -0.3243624 0.67945725 -0.015144989 0.36862648 -0.055786517
0.22439884 -0.100075096 -0.24714008 0.7214334 0.12608387 0.5639413 -0.22273159 0.4884951
00000000: 2f7d fabc 0c5b abbe 7c4c 2e3f 1a7a 9bbc
00000010: 1127 c73e 270e 83bd 39cc 683e ce72 babd
00000020: 9863 8abe c229 383f c75b eb3d ccc2 153f
00000030: 349c 6ebe 32ca f73e c95f febc d5fd aabe
00000040: 213b 2d3f a5d0 a5bc 559d c63e f320 7dbd
00000050: 083f 633e f7cb c0bd 7ebf 8abe d90a 393f
00000060: b975 d83d 5a7a 143f 1c8d 67be f4d6 f73e
00000070: 0c31 05bd 5c53 abbe dba2 303f 4080 a6bc
00000080: 970a c53e 6771 87bd 908a 743e 8ada b6bd
00000090: c287 90be c76f 3b3f aef1 e63d 79c9 113f
000000a0: b085 5cbe 715a f03e 68a0 0cbd ac68 aabe
000000b0: 295a 303f 3e59 b1bc 3a04 c23e 846c 86bd
000000c0: 14bb 6d3e 60bc bfbd a8c7 8bbe 9fbc 393f
000000d0: 1de7 e63d 48ba 0f3f bcaa 4bbe f57f f23e
000000e0: 10d4 00bd e03f a7be 2606 303f 866c 5abc
000000f0: 5657 be3e e9bc 76bd 5bd9 673e c202 ccbd
00000100: c7da 72be b3e1 343f c62b 003e 395b 103f
00000110: 5a4d 6bbe b02a f43e aed1 08bd 7895 a4be
00000120: 7f5f 2f3f 0c0c 59bc 8c60 bd3e 2ed3 5fbd
00000130: a982 6e3e b334 cabd 838a 71be e9c6 333f
00000140: 8040 023e 6190 0e3f 9f67 6fbe c6c9 f83e
00000150: 5797 f3bc d863 a6be e4c3 2e3f 7aa9 7abc
00000160: acd4 be3e ccef 6dbd d187 613e 0e0b d1bd
00000170: 3e69 7fbe 0c26 373f 0405 003e 8ba7 113f
00000180: c841 68be bcfa fa3e 4722 fabc d412 a6be
00000190: e9f0 2d3f b022 78bc 9cbc bc3e 6780 64bd
000001a0: cfc8 653e 2cf4 ccbd 4a12 7dbe dcaf 383f
000001b0: 211c 013e 755e 103f c013 64be 081c fa3e

100 f4 [8, 14]
-0.031708695 -0.33579755 0.68659437 -0.016378898 0.37786007 -0.064589515 0.23028891 -0.08883449
-0.27669978 0.7120074 0.1158894 0.5855724 -0.22858685 0.5022352 -0.03182952 -0.33572412
0.68254167 -0.018046983 0.3771714 -0.06257259 0.22500202 -0.0914902 -0.27641916 0.7144706
0.10602486 0.5791314 -0.22240901 0.5010866 -0.034436673 -0.33696222 0.6960043 -0.017131194
0.37396526 -0.067593515 0.24181116 -0.08775994 -0.2871474 0.72471756 0.11322035 0.5668108
-0.21118525 0.48584336 -0.03604094 -0.3333971 0.6951921 -0.018753877 0.3687135 -0.06660228
0.23524961 -0.091440246 -0.27863443 0.718832 0.112574935 0.5592796 -0.19550107 0.4894167
-0.033371307 -0.327834 0.6948247 -0.010485592 0.3615802 -0.0623095 0.2309091 -0.09754619
-0.24293385 0.70064616 0.12617385 0.56142 -0.22369835 0.49139982 -0.034992628 -0.3232187
0.6918997 -0.010444609 0.35851595 -0.05682547 0.23724572 -0.09642698 -0.24200605 0.6954644
0.12797654 0.55367166 -0.2277076 0.5006151 -0.031696267 -0.32661903 0.68848723 -0.012370919
0.36161038 -0.05989374 0.2245918 -0.09935507 -0.2567495 0.70852834 0.12398782 0.5672422
-0.22077484 0.50508773 -0.032527342 -0.32543677 0.6853099 -0.012177112 0.35800326 -0.057487722
0.2285204 -0.09757889 -0.25418273 0.7147792 0.12498346 0.5616788 -0.2166767 0.5022133
00000000: fae0 01bd a8ed abbe a6c4 2f3f 0a2d 86bc
00000010: e076 c13e 8247 84bd dbd0 6b3e dbee b5bd
00000020: 98ab 8dbe 1e46 363f 6c57 ed3d 13e8 153f
00000030: ac12 6abe 7c92 003f ac5f 02bd 08e4 abbe
00000040: 0dbb 2e3f 44d7 93bc 9c1c c13e 0f26 80bd
00000050: ee66 663e 375f bbbd d086 8dbe 8ce7 363f
00000060: 9023 d93d f541 143f 30bf 63be 3647 003f
00000070: 780d 0dbd 5086 acbe 562d 323f b856 8cbc
00000080: 6078 bf3e 786e 8abd 589d 773e 7cbb b3bd
00000090: fc04 93be 1787 393f 12e0 e73d 831a 113f
000000a0: f240 58be 76c0 f83e aa9f 13bd 06b3 aabe
000000b0: 1cf8 313f bba1 99bc 04c8 bc3e c766 88bd
000000c0: 46e5 703e 0645 bbbd 2ca9 8ebe 6005 383f
000000d0: b08d e63d f32c 0f3f 6f31 48be d394 fa3e
000000e0: 5ab0 08bd dcd9 a7be 08e0 313f c3cb 2bbc
000000f0: 0a21 b93e 3f38 7fbd 6f73 6c3e 4cc6 c7bd
00000100: a7c3 78be 8c5d 333f b833 013e 39b9 0f3f
00000110: 2e11 65be c298 fb3e 6e54 0fbd ec7c a5be
00000120: 5720 313f de1f 2bbc 678f b73e d3c1 68bd
00000130: 8bf0 723e 827b c5bd 6fd0 77be f409 323f
00000140: 480c 033e 6dbd 0d3f 2e2c 69be 5028 003f
00000150: f2d3 01bd 9c3a a7be b340 303f 65af 4abc
00000160: ff24 b93e 2353 75bd 65fb 653e ac7a cbbd
00000170: ac74 83be 1d62 353f 54ed fd3d c936 113f
00000180: cd12 62be 6e4d 013f 643b 05bd a69f a6be
00000190: 7870 2f3f 8282 47bc 344c b73e 3f78 6bbd
000001a0: 4001 6a3e 71d7 c7bd 3d24 82be c5fb 363f
000001b0: 54f7 ff3d 2fca 0f3f 7fe0 5dbe 0d91 003f

101 f4 [8, 14]
-0.027258357 -0.33664453 0.6870705 -0.017206082 0.38668203 -0.061674047 0.22665635 -0.088473395
-0.26029083 0.7135246 0.1119609 0.59180945 -0.24389055 0.49435467 -0.027743464 -0.33621007
0.6819663 -0.018790314 0.38571322 -0.05957847 0.22127824 -0.09155233 -0.2608806 0.7175928
0.102413945 0.5856683 -0.23639362 0.49343753 -0.029680686 -0.33695424 0.6943846 -0.017885493
0.38302806 -0.0637615 0.23762108 -0.08777571 -0.27297926 0.72479147 0.11015737 0.5747763
-0.22404 0.4791574 -0.03098395 -0.33523294 0.6931181 -0.0193523 0.37843177 -0.06363496
0.23097616 -0.09222435 -0.26437154 0.71886814 0.110126756 0.5661207 -0.20750757 0.4831826
-0.028760744 -0.3287292 0.6931676 -0.011624731 0.37063655 -0.05917012 0.2260361 -0.09877483
-0.2307434 0.70043147 0.12346309 0.5688369 -0.23753765 0.4862154 -0.030558938 -0.324465
0.69017625 -0.011878108 0.36813977 -0.053252883 0.23258325 -0.097410895 -0.22949451 0.6958798
0.12544683 0.561508 -0.2421334 0.4951399 -0.026947958 -0.32854927 0.68726474 -0.013437208
0.37090376 -0.057142947 0.21991794 -0.101077035 -0.24294895 0.70940536 0.12255287 0.5745866
-0.23528218 0.50011253 -0.027768856 -0.32731003 0.6841127 -0.013187463 0.366589 -0.05464896
0.22406517 -0.09922509 -0.24015188 0.71532696 0.12360211 0.5692123 -0.23101641 0.49767348
00000000: eb4c dfbc ac5c acbe dae3 2f3f c5f3 8cbc
00000010: 30fb c53e ed9d 7cbd 9a18 683e 8a31 b5bd
00000020: d744 85be 8ca9 363f c24b e53d d380 173f
00000030: 72be 79be 0e1c fd3e 4346 e3bc ba23 acbe
00000040: 5895 2e3f 25ee 99bc 347c c53e 8e08 74bd
00000050: c396 623e ca7f bbbd 2492 85be 29b4 373f
00000060: 67be d13d 5cee 153f 2b11 72be d8a3 fc3e
00000070: e924 f3bc 4485 acbe 30c3 313f 9984 92bc
00000080: 411c c43e 6495 82bd f152 733e c0c3 b3bd
00000090: f0c3 8bbe ef8b 393f 309a e13d 8a24 133f
000000a0: be6a 65be 1e54 f53e 0dd2 fdbc a7a3 abbe
000000b0: 3070 313f b788 9ebc cfc1 c13e 0c53 82bd
000000c0: 0485 6c3e 1fe0 bcbd b55b 87be be07 383f
000000d0: 238a e13d 49ed 103f dd7c 54be b663 f73e
000000e0: a79b ebbc 324f a8be 6f73 313f a875 3ebc
000000f0: 13c4 bd3e 5e5c 72bd 0276 673e 754a cabd
00000100: ff47 6cbe 7a4f 333f 37da fc3d 4c9f 113f
00000110: 123d 73be 3af1 f83e bd56 fabc 4720 a6be
00000120: 64af 303f 659c 42bc d17c bc3e b21f 5abd
00000130: 4e2a 6e3e 5d7f c7bd 9c00 6bbe 2e25 323f
00000140: 2275 003e fdbe 0f3f d1f1 77be fa82 fd3e
00000150: f7c1 dcbc 9c37 a8be 95f0 2f3f bc27 5cbc
00000160: 19e7 bd3e b90e 6abd 2b32 613e 7a01 cfbd
00000170: 9cc7 78be 979b 353f 00fd fa3d 1b18 133f
00000180: d0ed 70be 6007 003f 837b e3bc 2e95 a7be
00000190: 0322 2f3f 3b10 58bc 8eb1 bb3e 96d7 5fbd
000001a0: 5771 653e 8636 cbbd 60ea 75be ab1f 373f
000001b0: 1a23 fd3d e6b7 113f 918f 6cbe 0fcf fe3e

102 f4 [8, 14]
-0.02916255 -0.34444574 0.68975794 -0.017857775 0.38152203 -0.0621965 0.22784877 -0.086937495
-0.27008215 0.7124539 0.110335365 0.5811611 -0.23482989 0.4873286 -0.02957564 -0.34396765
0.6848408 -0.019369561 0.38120744 -0.059606563 0.22302988 -0.0898273 -0.27147424 0.71587914
0.10038598 0.57559454 -0.22901586 0.48756656 -0.031375393 -0.34411865 0.6981906 -0.018919073
0.37857282 -0.0640392 0.24005486 -0.08422919 -0.28414837 0.72352695 0.10742642 0.5641483
-0.21702796 0.4724325 -0.033142105 -0.34121537 0.6969247 -0.019858755 0.37395477 -0.063637786
0.23267998 -0.08858915 -0.27518466 0.7173139 0.10688932 0.5565137 -0.20051678 0.4783008
-0.031025408 -0.3366654 0.6960015 -0.01178572 0.3656267 -0.058984134 0.22805962 -0.0961117
-0.23789984 0.69994706 0.120404914 0.55744594 -0.23068008 0.48191524 -0.032762863 -0.33227175
0.69323844 -0.011964964 0.36337513 -0.053122684 0.23402433 -0.094661504 -0.23663856 0.6952596
0.12235145 0.5501316 -0.23565656 0.4915772 -0.029195597 -0.3360052 0.6907985 -0.0135831665
0.36727855 -0.056732807 0.22066724 -0.09779962 -0.25114948 0.7086676 0.11939837 0.5632903
-0.22841775 0.49660313 -0.030071491 -0.33517092 0.68794334 -0.0132653685 0.363361 -0.054348897
0.22473556 -0.09599475 -0.24859324 0.7144081 0.120363735 0.55860114 -0.22416458 0.4939838
00000000: 4de6 eebc 315b b0be fa93 303f 784a 92bc
00000010: db56 c33e c2c1 7ebd 3051 693e 490c b2bd
00000020: 3548 8abe 6163 363f 82f7 e13d f9c6 143f
00000030: 3f77 70be 2283 f93e 9d48 f2bc 871c b0be
00000040: ba51 2f3f eaac 9ebc 9f2d c33e 0326 74bd
00000050: f261 643e 60f7 b7bd acfe 8abe db43 373f
00000060: 2a97 cd3d 2a5a 133f 2283 6abe 53a2 f93e
00000070: 7c83 00bd 5230 b0be 9fbc 323f 2cfc 9abc
00000080: 4cd4 c13e fc26 83bd f1d0 753e 5b80 acbd
00000090: e57b 91be 1039 393f 6202 dc3d 066c 103f
000000a0: 943c 5ebe ace2 f13e 04c0 07bd c8b3 aebe
000000b0: a869 323f d4ae a2bc 0077 bf3e 8754 82bd
000000c0: a943 6e3e 3a6e b5bd 01e5 8cbe e2a1 373f
000000d0: cae8 da3d af77 0e3f 4554 4dbe d8e3 f43e
000000e0: ff28 febc 685f acbe 282d 323f e418 41bc
000000f0: 6c33 bb3e 5999 71bd 7688 693e 36d6 c4bd
00000100: 049c 73be bb2f 333f da96 f63d c7b4 0e3f
00000110: 6637 6cbe 98bd f63e 5a32 06bd 861f aabe
00000120: 1378 313f b208 44bc 4e0c ba3e 2c97 59bd
00000130: 13a4 6f3e e4dd c1bd 6151 72be 88fc 313f
00000140: 6693 fa3d 6dd5 0c3f f44f 71be 02b0 fb3e
00000150: 9b2b efbc e008 acbe 2cd8 303f ee8b 5ebc
00000160: ef0b bc3e a960 68bd 98f6 613e 2b4b c8bd
00000170: aa96 80be 3d6b 353f 2287 f43d cb33 103f
00000180: 58e6 69be c442 fe3e 7d58 f6bc 869b abbe
00000190: 0e1d 303f fd56 59bc 740a ba3e f39c 5ebd
000001a0: 1421 663e e598 c4bd 3a8f 7ebe 73e3 363f
000001b0: 4381 f63d 7c00 0f3f 668b 65be 72eb fc3e

103 f4 [8, 14]
-0.031302206 -0.33303624 0.6875897 -0.017880138 0.37984776 -0.06154303 0.22282586 -0.092161685
-0.260562 0.7159569 0.11109777 0.5912097 -0.23538262 0.4888263 -0.03167399 -0.33271205
0.68274343 -0.019151246 0.37899205 -0.059120134 0.21798319 -0.09529935 -0.2609387 0.7204179
0.10128884 0.58524615 -0.2291629 0.48852742 -0.032626793 -0.3340928 0.695942 -0.018926298
0.37534255 -0.06361243 0.2340325 -0.090906434 -0.27368137 0.72839946 0.108351976 0.5746726
-0.21651405 0.47600803 -0.03416487 -0.3312154 0.69479877 -0.020511655 0.36989713 -0.063120045
0.22760314 -0.09494308 -0.2655964 0.72179234 0.10818434 0.5665129 -0.20050661 0.4782539
-0.031736135 -0.32520318 0.6928474 -0.012108767 0.3625455 -0.05797069 0.22181737 -0.10108988
-0.23020461 0.7039557 0.1216963 0.5688922 -0.23039606 0.4832905 -0.033524968 -0.320803
0.68992037 -0.012344199 0.3599232 -0.05150988 0.22816536 -0.09999814 -0.22776605 0.69993263
0.12351308 0.5617093 -0.23489493 0.49181813 -0.029984897 -0.3237632 0.68750614 -0.014238713
0.3637367 -0.055955753 0.21465097 -0.103223324 -0.24355304 0.7129831 0.12076989 0.57419395
-0.2276904 0.49653926 -0.030739991 -0.32257143 0.68426627 -0.0140212905 0.35963765 -0.053457797
0.21852657 -0.101035886 -0.24119408 0.7187232 0.12163397 0.569224 -0.2240687 0.49483946
00000000: be36 00bd ba83 aabe e105 303f 5e79 92bc
00000010: 687b c23e 8b14 7cbd 762c 643e 44bf bcbd
00000020: 6268 85be f448 373f 3a87 e33d 8559 173f
00000030: 2408 71be 7147 fa3e 96bc 01bd 3c59 aabe
00000040: 46c8 2e3f 13e3 9cbc 3f0b c23e f427 72bd
00000050: fc36 5f3e 4e2c c3bd c299 85be 4f6d 383f
00000060: 8670 cf3d b1d2 153f aea9 6abe 4420 fa3e
00000070: aca3 05bd 360e abbe 4129 323f 530b 9bbc
00000080: e62c c03e 3c47 82bd 37a6 6f3e 272d babd
00000090: f71f 8cbe 6378 3a3f a4e7 dd3d be1d 133f
000000a0: dcb5 5dbe 53b7 f33e 76f0 0bbd 1195 a9be
000000b0: 55de 313f 0f08 a8bc 2863 bd3e 1545 81bd
000000c0: cc10 693e 8471 c2bd 40fc 87be 62c7 383f
000000d0: c08f dd3d fd06 113f 9b51 4dbe b2dd f43e
000000e0: c0fd 01bd 0881 a6be 725e 313f da63 46bc
000000f0: 909f b93e ad72 6dbd 1824 633e 3608 cfbd
00000100: c2ba 6bbe 7136 343f e93b f93d eba2 113f
00000110: f2ec 6bbe da71 f73e 7a51 09bd 4a40 a4be
00000120: 9f9e 303f 533f 4abc db47 b83e 06fc 52bd
00000130: 2ea4 693e d3cb ccbd 813b 69be c92e 333f
00000140: 6df4 fc3d 2ecc 0f3f 4c88 70be 96cf fb3e
00000150: e3a2 f5bc 4ac4 a5be 6700 303f 7e49 69bc
00000160: b23b ba3e dc31 65bd 77cd 5b3e c066 d3bd
00000170: f865 79be 0f86 363f 3456 f73d 60fe 123f
00000180: ac27 69be 653a fe3e 6fd2 fbbc 1528 a5be
00000190: 132c 2f3f 8eb9 65bc 6d22 b83e 90f6 5abd
000001a0: 6ec5 5f3e e7eb cebd 95fb 76be 3efe 373f
000001b0: 3b1b f93d aab8 113f 4472 65be 995b fd3e

104 f4 [8, 14]
-0.026687274 -0.34608126 0.68716013 -0.019080509 0.37599403 -0.06172831 0.22191711 -0.08316331
-0.26892942 0.7147296 0.105904385 0.58575565 -0.23842907 0.48370087 -0.026780708 -0.3459105
0.68160194 -0.02049217 0.37553963 -0.058518842 0.2174045 -0.08606284 -0.269914 0.7191322
0.095975555 0.57990444 -0.23264581 0.48475808 -0.028443413 -0.34599507 0.6962964 -0.02006312
0.3722314 -0.062330235 0.23186243 -0.08058116 -0.28028047 0.72651875 0.10356998 0.5694708
-0.22124092 0.46947604 -0.03060251 -0.3438781 0.6952598 -0.0207802 0.3682967 -0.062105738
0.22542511 -0.08532364 -0.2722052 0.72101426 0.10328177 0.56117475 -0.20615387 0.47411114
-0.028833548 -0.33842322 0.69429773 -0.011902221 0.36044854 -0.057627585 0.22188163 -0.09095707
-0.23616259 0.7024147 0.11620352 0.56195176 -0.23578787 0.47782275 -0.030523458 -0.3340239
0.6910537 -0.012275754 0.3577067 -0.051650014 0.22830066 -0.089736015 -0.23631133 0.69911844
0.11797229 0.55512637 -0.24000737 0.48712504 -0.026455889 -0.33763134 0.6872369 -0.014276108
0.36148226 -0.05530926 0.21477509 -0.09280071 -0.2495108 0.7120749 0.11498579 0.56763154
-0.232575 0.4932555 -0.027404917 -0.33667004 0.6843517 -0.0139199225 0.35738838 -0.052952196
0.21883504 -0.09101696 -0.24688235 0.7180253 0.11601338 0.56320345 -0.22863269 0.491313
00000000: 459f dabc 9031 b1be bae9 2f3f ba4e 9cbc
00000010: 4a82 c03e d3d6 7cbd 3d3e 633e 8751 aabd
00000020: 1eb1 89be 85f8 363f 66e4 d83d 15f4 153f
00000030: c026 74be a4a7 f73e 3763 dbbc 2e1b b1be
00000040: 777d 2e3f 32df a7bc bb46 c03e 74b1 6fbd
00000050: 499f 5e3e b741 b0bd 2b32 8abe 0c19 383f
00000060: d58e c43d 9e74 143f b43a 6ebe 3632 f83e
00000070: 2902 e9bc 4426 b1be 7b40 323f 6a5b a4bc
00000080: 1d95 be3e fd4d 7fbd 586d 6d3e bc07 a5bd
00000090: ec80 8fbe 22fd 393f 7f1c d43d d7c8 113f
000000a0: fb8c 62be 2a5f f03e 1db2 fabc ca10 b0be
000000b0: 8cfc 313f 3d3b aabc 6391 bc3e 9662 7ebd
000000c0: d7d5 663e 29be aebd 7b5e 8bbe 6494 383f
000000d0: 6585 d33d 26a9 0f3f 001a 53be b2be f23e
000000e0: 5534 ecbc cf45 adbe 7fbd 313f 8801 43bc
000000f0: b68c b83e e70a 6cbd f034 633e b347 babd
00000100: 9bd4 71be 73d1 333f 1cfc ed3d 12dc 0f3f
00000110: 6072 71be 2fa5 f43e 550c fabc 2e05 abbe
00000120: e5e8 303f 3e20 49bc 5525 b73e f78e 53bd
00000130: a6c7 693e 84c7 b7bd 99fb 71be 6df9 323f
00000140: 759b f13d c31c 0e3f 7ec4 75be 7468 f93e
00000150: 05ba d8bc 04de acbe c2ee 2f3f 56e6 69bc
00000160: 3414 b93e f68b 62bd 00ee 5b3e 4c0e bebd
00000170: c27f 7fbe 8a4a 363f ab7d eb3d 4d50 113f
00000180: 2428 6ebe fc8b fc3e 4780 e0bc 0460 acbe
00000190: ac31 2f3f 6310 64bc 9cfb b63e 67e4 58bd
000001a0: 4b16 603e 1a67 babd bace 7cbe 82d0 373f
000001b0: 6c98 ed3d 1a2e 103f b01e 6abe 618d fb3e

105 f4 [8, 14]
-0.03314454 -0.33822614 0.69305533 -0.014592057 0.3820888 -0.06364581 0.23205741 -0.08479234
-0.26153684 0.7154236 0.10798608 0.5847513 -0.24050364 0.48361975 -0.03365303 -0.3375716
0.6885581 -0.015944779 0.38080302 -0.061557557 0.22613549 -0.08798131 -0.26159728 0.7190372
0.09885694 0.5793988 -0.23396821 0.4835202 -0.035518184 -0.3379407 0.7020468 -0.015283195
0.3784101 -0.06572437 0.24259283 -0.084266454 -0.27303028 0.72653943 0.105833665 0.57102007
-0.22156358 0.4683417 -0.036926635 -0.3344931 0.7006434 -0.016841652 0.37345392 -0.064775504
0.23541135 -0.08801827 -0.2653339 0.72029173 0.105382405 0.5625771 -0.20588106 0.4714036
-0.0343445 -0.33106133 0.6990581 -0.008456155 0.36714807 -0.06079855 0.23019445 -0.094831765
-0.22915591 0.7040575 0.119228244 0.56309664 -0.23341213 0.4751521 -0.0363409 -0.32700795
0.69670373 -0.00865324 0.36418998 -0.0554875 0.23774391 -0.09374282 -0.22826873 0.70014024
0.12086342 0.5551487 -0.23751606 0.48444903 -0.032494828 -0.33048153 0.6931668 -0.010326043
0.36686102 -0.058955763 0.22493863 -0.09674457 -0.24110876 0.7126205 0.117382675 0.5674925
-0.23099644 0.48881066 -0.033309758 -0.3291886 0.6900046 -0.010045981 0.36314237 -0.056441065
0.22888541 -0.094840705 -0.23902656 0.71849537 0.118249506 0.5622517 -0.22694598 0.48654282
00000000: 92c2 07bd fa2b adbe 136c 313f 8613 6fbc
00000010: 25a1 c33e bc58 82bd 75a0 6d3e 9ba7 adbd
00000020: 28e8 85be 0026 373f ce27 dd3d 43b2 153f
00000030: 9646 76be 029d f73e c2d7 09bd 2fd6 acbe
00000040: 5845 303f a09e 82bc 9df8 c23e c723 7cbd
00000050: 1090 673e 8c2f b4bd 14f0 85be d212 383f
00000060: 8275 ca3d 7b53 143f 5d95 6fbe f68f f73e
00000070: 847b 11bd 9006 adbe 57b9 333f 5e66 7abc
00000080: f8be c13e 809a 86bd 416a 783e e493 acbd
00000090: a0ca 8bbe 7dfe 393f 52bf d83d 5f2e 123f
000000a0: 90e1 62be 7cca ef3e 6240 17bd ae42 abbe
000000b0: 5e5d 333f 81f7 89bc 5a35 bf3e 05a9 84bd
000000c0: ac0f 713e ec42 b4bd d8d9 87be 0a65 383f
000000d0: bbd2 d73d 0e05 103f 7cd2 52be d05b f13e
000000e0: d2ac 0cbd df80 a9be 79f5 323f af8b 0abc
000000f0: d5fa bb3e e607 79bd 18b8 6b3e 2837 c2bd
00000100: d9a7 6abe 1d3d 343f f02d f43d 1a27 103f
00000110: 9703 6fbe 2347 f33e 32da 14bd 966d a7be
00000120: 2d5b 323f 52c6 0dbc 1c77 ba3e dc46 63bd
00000130: 2473 733e 3cfc bfbd 47bf 69be 643c 333f
00000140: 3e87 f73d 3a1e 0e3f 6937 73be b409 f83e
00000150: 4c19 05bd e034 a9be 6173 313f 902e 29bc
00000160: 35d5 bb3e 997b 71bd 5056 663e 0422 c6bd
00000170: 37e5 76be 4c6e 363f 5466 f03d 3047 113f
00000180: 558a 6cbe 6445 fa3e d06f 08bd 688b a8be
00000190: 24a4 303f e697 24bc cced b93e bf2e 67bd
000001a0: f060 6a3e d83b c2bd 61c3 74be 50ef 373f
000001b0: cc2c f23d baef 0f3f 8764 68be 241c f93e

106 f4 [8, 14]
-0.030102579 -0.33791804 0.6894415 -0.01733843 0.38574612 -0.06425713 0.22712046 -0.09106101
-0.26643234 0.71403354 0.110979766 0.5814587 -0.23556516 0.4952651 -0.030610459 -0.33710206
0.68437266 -0.018850947 0.38432875 -0.06207842 0.2214149 -0.09397564 -0.26673368 0.71734333
0.10132667 0.5768091 -0.22919357 0.49514872 -0.03279791 -0.33695915 0.6985419 -0.017615158
0.38128498 -0.06689494 0.23764661 -0.090187445 -0.27857774 0.72585934 0.10934112 0.56558007
-0.21897945 0.48077056 -0.03411954 -0.3347851 0.69704163 -0.019078461 0.37612277 -0.066470705
0.23040172 -0.09433947 -0.2698513 0.7189627 0.10920302 0.55746615 -0.20278874 0.48560685
-0.03175179 -0.33046108 0.6958866 -0.010514069 0.36846223 -0.061873186 0.22723359 -0.100332014
-0.23340225 0.70096153 0.12156113 0.55840194 -0.23254137 0.48814625 -0.03369589 -0.3259791
0.6932776 -0.010922598 0.36624783 -0.055932127 0.23400536 -0.09885136 -0.23223446 0.6964589
0.12371537 0.550637 -0.23715785 0.49675453 -0.03014349 -0.32996657 0.69007283 -0.012737607
0.36922836 -0.059048127 0.22165346 -0.10187008 -0.24604002 0.7096038 0.12063193 0.5639597
-0.23054814 0.5009512 -0.031036181 -0.3286968 0.68714213 -0.012436539 0.36539158 -0.05671672
0.2255778 -0.100064605 -0.24336575 0.71586186 0.12152278 0.5592289 -0.22595811 0.49829197
00000000: af99 f6bc 9803 adbe 3d7f 303f 5309 8ebc
00000010: 8480 c53e 3e99 83bd 4492 683e 327e babd
00000020: d269 88be e7ca 363f 5c49 e33d 7ada 143f
00000030: fe37 71be 6393 fd3e c9c2 fabc a498 acbe
00000040: 0c33 2f3f 4d6d 9abc bdc6 c43e f145 7ebd
00000050: 96ba 623e 4d76 c0bd 5191 88be d0a3 373f
00000060: 5b84 cf3d c3a9 133f b8b1 6abe 2284 fd3e
00000070: 1a57 06bd e985 acbe a4d3 323f aa4d 90bc
00000080: c937 c33e 3700 89bd a259 733e 32b4 b8bd
00000090: bea1 8ebe ebd1 393f 3dee df3d dbc9 103f
000000a0: 263c 60be 8f27 f63e eec0 0bbd f468 abbe
000000b0: 5271 323f 6f4a 9cbc 2a93 c03e cb21 88bd
000000c0: 6eee 6b3e 0d35 c1bd f329 8abe f10d 383f
000000d0: d5a5 df3d 1ab6 0e3f daa7 4fbe 76a1 f83e
000000e0: 2a0e 02bd 3232 a9be a025 323f 3443 2cbc
000000f0: 15a7 bc3e bd6e 7dbd ecaf 683e df7a cdbd
00000100: 0001 6fbe 3772 333f 0bf5 f83d 6ef3 0e3f
00000110: 531f 6ebe 4eee f93e b404 0abd bce6 a6be
00000120: a47a 313f b2f4 32bc d684 bb3e 1619 65bd
00000130: 1a9f 6f3e 9572 cabd dfce 6dbe 214b 323f
00000140: 7c5e fd3d 8cf6 0c3f 82d9 72be 9c56 fe3e
00000150: 7bef f6bc 61f1 a8be 9da8 303f 65b1 50bc
00000160: 800b bd3e 73dc 71bd 20f9 623e 43a1 d0bd
00000170: eaf1 7bbe 98a8 353f e00d f73d aa5f 103f
00000180: d014 6cbe 563e 003f 973f febc f24a a8be
00000190: 8ce8 2f3f a0c2 4bbc 9b14 bb3e cb4f 68bd
000001a0: defd 663e acee ccbd df34 79be b942 373f
000001b0: efe0 f83d a029 0f3f 9061 67be 2020 ff3e

107 f4 [8, 14]
-0.030397506 -0.33697802 0.6815888 -0.016469555 0.37885076 -0.06234987 0.23070109 -0.09073039
-0.26302198 0.71496177 0.11488892 0.59316 -0.23662266 0.48294646 -0.030720519 -0.33703324
0.6767526 -0.018088333 0.37769052 -0.06002089 0.22520557 -0.09367421 -0.26314563 0.71912533
0.10536566 0.5872917 -0.23006588 0.4830997 -0.033071287 -0.3377609 0.6907597 -0.017720869
0.3741537 -0.06468146 0.24156211 -0.08893138 -0.27230537 0.7277104 0.11228381 0.5756505
-0.21878998 0.46840298 -0.034771822 -0.33517015 0.68958896 -0.018799322 0.36817905 -0.06388943
0.23434106 -0.09317395 -0.26385146 0.7221302 0.11216571 0.5665025 -0.20271857 0.471701
-0.032036826 -0.3295693 0.6881034 -0.010667391 0.36110103 -0.059117824 0.22779639 -0.09925297
-0.22896752 0.704032 0.12518424 0.5693692 -0.23254937 0.47304285 -0.033940017 -0.3253854
0.6850897 -0.010927727 0.35891014 -0.053130213 0.23423126 -0.09812479 -0.22756237 0.6990996
0.12739938 0.5618261 -0.23634799 0.48235804 -0.030213619 -0.32937053 0.68233263 -0.0129719395
0.36207843 -0.056803584 0.22200547 -0.100709386 -0.24265651 0.7132689 0.12401602 0.57405
-0.22903803 0.4895906 -0.031030683 -0.3286029 0.6791906 -0.012756488 0.35785985 -0.05442696
0.22603403 -0.098809466 -0.24022959 0.7195503 0.12500793 0.56876785 -0.22472127 0.48761356
00000000: 3104 f9bc 6288 acbe 9b7c 2e3f 29eb 86bc
00000010: baf8 c13e 9462 7fbd e83c 6c3e dbd0 b9bd
00000020: d1aa 86be bc07 373f e24a eb3d 55d9 173f
00000030: 364d 72be c244 f73e 99a9 fbbc 9f8f acbe
00000040: a93f 2d3f fc2d 94bc a760 c13e 77d8 75bd
00000050: 4a9c 663e 44d8 bfbd 06bb 86be 9918 383f
00000060: f3c9 d73d c058 163f 6496 6bbe d858 f73e
00000070: c275 07bd ffee acbe a1d5 303f 5b2b 91bc
00000080: 1391 bf3e b777 84bd 0f5c 773e a821 b6bd
00000090: 9c6b 8bbe 3b4b 3a3f 0ef5 e53d d55d 133f
000000a0: 7b0a 60be 84d2 ef3e e66c 0ebd 6c9b abbe
000000b0: e788 303f 0901 9abc f781 bc3e 76d8 82bd
000000c0: 1af7 6f3e fcd1 bebd 8a17 87be 86dd 383f
000000d0: 23b7 e53d 4f06 113f 7595 4fbe cb82 f13e
000000e0: 0c39 03bd 4fbd a8be 8b27 303f 48c6 2ebc
000000f0: 3ce2 b83e 8825 72bd 7543 693e 2445 cbbd
00000100: 7676 6abe 713b 343f 4c30 003e 2ec2 113f
00000110: 6c21 6ebe ac32 f23e b004 0bbd ea98 a6be
00000120: 0a62 2f3f 360a 33bc 12c3 b73e 119f 59bd
00000130: 52da 6f3e a6f5 c8bd 1c06 69be 31f8 323f
00000140: fc74 023e d6d3 0f3f 3505 72be a2f7 f63e
00000150: 8d82 f7bc 41a3 a8be 5aad 2e3f 4288 54bc
00000160: 5862 b93e e0aa 68bd 6755 633e b940 cebd
00000170: f37a 78be ca98 363f 1cfc fd3d f1f4 123f
00000180: f288 6abe 9eab fa3e 0f34 febc a43e a8be
00000190: 6fdf 2d3f 9700 51bc 6839 b73e ceee 5ebd
000001a0: 7775 673e 9e5c cabd bffe 75be 7334 383f
000001b0: 1402 003e c59a 113f 551d 66be 7ca8 f93e

108 f4 [8, 14]
-0.029381076 -0.3302439 0.68890023 -0.01641934 0.3792334 -0.059469365 0.22616813 -0.088846035
-0.26250625 0.7107369 0.113434725 0.59284925 -0.23973125 0.48261237 -0.02995816 -0.32991713
0.6839063 -0.018139867 0.37930986 -0.05680196 0.22114715 -0.0914778 -0.26299495 0.71498114
0.10363388 0.58597285 -0.23337314 0.48208338 -0.031496942 -0.33109498 0.69734454 -0.017817609
0.37561592 -0.06146364 0.23641312 -0.087760635 -0.27387965 0.7218379 0.11176081 0.5747253
-0.21999693 0.46935368 -0.033207163 -0.32826325 0.69638014 -0.018982965 0.37117922 -0.060712982
0.22926491 -0.0919813 -0.26593646 0.7162274 0.111411765 0.5671886 -0.20373394 0.47333482
-0.03123183 -0.3228079 0.6950373 -0.010786004 0.3634395 -0.055302776 0.22362718 -0.09864075
-0.22872129 0.69808906 0.1253052 0.5678257 -0.23453447 0.47635335 -0.03310401 -0.3185936
0.69201416 -0.01081272 0.36090946 -0.049205337 0.23007141 -0.097529 -0.22836077 0.6940266
0.1275348 0.56114066 -0.2385918 0.48523223 -0.02910732 -0.3226622 0.6882258 -0.012938099
0.36425236 -0.052838866 0.21778286 -0.10047517 -0.2427132 0.7081223 0.12395816 0.574407
-0.23131523 0.49088395 -0.02993515 -0.32193217 0.6852151 -0.0128088705 0.36003852 -0.050581913
0.22199649 -0.098508775 -0.24068916 0.71424025 0.124927126 0.5690743 -0.22678947 0.48880175
00000000: 95b0 f0bc ba15 a9be c45b 303f da81 86bc
00000010: e12a c23e 2696 73bd 9e98 673e e9f4 b5bd
00000020: 3867 86be daf2 353f 7750 e83d f8c4 173f
00000030: 1c7c 75be f818 f73e d16a f5bc e6ea a8be
00000040: 7c14 2f3f 0f9a 94bc e734 c23e 2ca9 68bd
00000050: 6674 623e b658 bbbd 46a7 86be 0109 373f
00000060: 003e d43d 5102 163f 5ef9 6ebe a2d3 f63e
00000070: f002 01bd 4885 a9be 2c85 323f 3cf6 91bc
00000080: bb50 c03e 4cc1 7bbd 4816 723e d9bb b3bd
00000090: f439 8cbe 5eca 383f dae2 e43d 3221 133f
000000a0: e046 61be 204f f03e 3c04 08bd 1f12 a8be
000000b0: f845 323f 2a82 9bbc 340b be3e 2dae 78bd
000000c0: 6cc4 6a3e b160 bcbd d328 88be ae5a 373f
000000d0: da2b e43d 4633 113f a19f 50be f158 f23e
000000e0: e5d9 ffbc 1447 a5be f7ed 313f c8b7 30bc
000000f0: be14 ba3e 2a85 62bd 86fe 643e 2904 cabd
00000100: ea35 6abe f7b5 323f 0250 003e 065d 113f
00000110: ce29 70be 96e4 f33e 1298 07bd b31e a3be
00000120: d727 313f d627 31bc 20c9 b83e 898b 49bd
00000130: d797 6b3e 49bd c7bd 68d7 69be baab 313f
00000140: 7c98 023e eaa6 0f3f 6951 74be 5c70 f83e
00000150: 7972 eebc fb33 a5be 912f 303f 52fa 53bc
00000160: 497f ba3e 916d 58bd 7802 5f3e edc5 cdbd
00000170: cf89 78be 8147 353f c7dd fd3d 560c 133f
00000180: e6dd 6cbe 2455 fb3e 8f3a f5bc 4bd4 a4be
00000190: 426a 2f3f 4cdc 51bc f856 b83e fb2e 4fbd
000001a0: 0c53 633e f8be c9bd 3877 76be 73d8 363f
000001b0: cbd9 ff3d daae 113f 803b 68be 3944 fa3e

109 f4 [8, 14]
-0.031964503 -0.3327483 0.69224423 -0.01282355 0.3780017 -0.06166042 0.23586708 -0.090199865
-0.26077992 0.7155678 0.111963354 0.5902118 -0.23876965 0.48675302 -0.032059923 -0.332219
0.6881069 -0.014355988 0.37669894 -0.05931732 0.23039767 -0.09247061 -0.26093733 0.71951586
0.101917475 0.5836093 -0.23337424 0.48642397 -0.034495518 -0.3330801 0.7004071 -0.013918875
0.37210023 -0.06346931 0.24758804 -0.08850483 -0.27293333 0.7282286 0.109281875 0.5729165
-0.220812 0.47248685 -0.035957113 -0.33026007 0.6992041 -0.015570654 0.3672074 -0.06273974
0.24037245 -0.09231403 -0.26503408 0.7217529 0.108342715 0.5639243 -0.20486408 0.47550493
-0.03372127 -0.32618466 0.699471 -0.007207102 0.3599052 -0.05832511 0.23584196 -0.09820148
-0.22948682 0.7036288 0.12185801 0.5653775 -0.23315054 0.47800893 -0.035645917 -0.32185087
0.69619864 -0.007588533 0.35703152 -0.052655198 0.2429239 -0.09698743 -0.22780214 0.69885015
0.12351696 0.5579668 -0.23772046 0.48719424 -0.03176734 -0.32567078 0.6916036 -0.009632695
0.35950297 -0.055866957 0.23011598 -0.10013117 -0.24345905 0.71169263 0.12003399 0.5717382
-0.23085323 0.49244788 -0.03262329 -0.32419977 0.68880147 -0.009502927 0.35574406 -0.05347639
0.234262 -0.09834231 -0.2413598 0.7172756 0.12097888 0.5669628 -0.22660956 0.48926115
00000000: 36ed 02bd fc5d aabe eb36 313f de19 52bc
00000010: 7089 c13e a38f 7cbd 2487 713e b5ba b8bd
00000020: f284 85be 742f 373f 0b4d e53d 1f18 173f
00000030: 0880 74be b137 f93e 4451 03bd 9c18 aabe
00000040: c627 303f 6135 6bbc afde c03e b8f6 72bd
00000050: 5eed 6b3e 3b61 bdbd 9499 85be 3132 383f
00000060: 1cba d03d 6b67 153f a8f9 6ebe 900c f93e
00000070: 2c4b 0dbd 7a89 aabe e14d 333f fe0b 64bc
00000080: ec83 be3e 33fc 81bd b887 7d3e 0542 b5bd
00000090: ebbd 8bbe 316d 3a3f 2dcf df3d a8aa 123f
000000a0: 8a1c 62be cce9 f13e c447 13bd d917 a9be
000000b0: 0aff 323f 0e1c 7fbc 9c02 bc3e b17d 80bd
000000c0: 3224 763e 230f bdbd 8cb2 87be ccc4 383f
000000d0: c9e2 dd3d 585d 103f e4c7 51be 6275 f33e
000000e0: 501f 0abd ad01 a7be 8810 333f 8e29 ecbb
000000f0: 7f45 b83e 4fe6 6ebd 8e80 713e dc1d c9bd
00000100: 98fe 6abe 0421 343f b190 f93d 94bc 103f
00000110: 04bf 6ebe 96bd f43e 7401 12bd a3c9 a4be
00000120: 133a 323f 3ba9 f8bb d6cc b63e faac 57bd
00000130: 0bc1 783e 58a1 c6bd f744 69be d8e7 323f
00000140: 76f6 fc3d ead6 0e3f fe6c 73be 8671 f93e
00000150: 781e 02bd 52be a6be ef0c 313f 73d2 1dbc
00000160: c610 b83e c0d4 64bd 86a3 6b3e 9211 cdbd
00000170: 544d 79be 7d31 363f 61d4 f53d 6f5d 123f
00000180: ca64 6cbe 2122 fc3e 00a0 05bd 83fd a5be
00000190: 4b55 303f 2ab2 1bbc 1624 b63e 0f0a 5bbd
000001a0: 61e2 6f3e b167 c9bd 0627 77be 609f 373f
000001b0: c6c3 f73d 7924 113f 560c 68be 7080 fa3e

11 f4 [8, 14]
-0.030285506 -0.33751753 0.69143575 -0.016063137 0.38076854 -0.06265231 0.23133959 -0.08740117
-0.26448718 0.7115755 0.10662283 0.5868028 -0.24152493 0.49249256 -0.030809877 -0.337088
0.68710417 -0.017414568 0.37993 -0.060335055 0.22575079 -0.090561084 -0.26417655 0.7150867
0.09696175 0.58127606 -0.23539484 0.49148124 -0.032518193 -0.33789107 0.7008735 -0.016862284
0.37663382 -0.06411638 0.24304509 -0.08590516 -0.27342147 0.7237448 0.10350972 0.57141155
-0.22417304 0.4760897 -0.034075603 -0.33584017 0.6991533 -0.018272186 0.3713236 -0.06353598
0.23529093 -0.08987972 -0.26610172 0.7180431 0.10301904 0.56268996 -0.20735459 0.47907296
-0.032277018 -0.33084857 0.69752795 -0.010280083 0.36519393 -0.05943773 0.2295107 -0.097199686
-0.22995253 0.6994527 0.11760363 0.56385356 -0.23551393 0.48330176 -0.034209825 -0.3266876
0.6945822 -0.010344123 0.3625955 -0.05347469 0.23695457 -0.09588796 -0.22868274 0.6946723
0.11983891 0.5563819 -0.23988444 0.49243385 -0.030467717 -0.3289587 0.6925391 -0.012043942
0.36496747 -0.057258263 0.22405174 -0.09907604 -0.24348253 0.70754725 0.11674977 0.5699909
-0.23316854 0.49794883 -0.03131868 -0.32787663 0.6895464 -0.011731721 0.3609061 -0.054705203
0.22793685 -0.09711997 -0.24073157 0.7135012 0.117608316 0.56473947 -0.22890717 0.49511933
00000000: 4f19 f8bc 19cf acbe ef01 313f d796 83bc
00000010: 18f4 c23e db4f 80bd 49e4 6c3e 62ff b2bd
00000020: dd6a 87be d029 363f 125d da3d b538 163f
00000030: 5052 77be fc27 fc3e ff64 fcbc cc96 acbe
00000040: 0fe6 2f3f ffa8 8ebc 2f86 c23e e421 77bd
00000050: 372b 673e 1778 b9bd 2642 87be ec0f 373f
00000060: e293 c63d 82ce 143f 580b 71be 6ea3 fb3e
00000070: cc31 05bd 0f00 adbe 726c 333f c622 8abc
00000080: 26d6 c03e 734f 83bd d0e0 783e 0bef afbd
00000090: e6fd 8bbe 5747 393f e7fc d33d 0748 123f
000000a0: 9e8d 65be 07c2 f33e dc92 0bbd 3ef3 abbe
000000b0: b6fb 323f 8daf 95bc 201e be3e 271f 82bd
000000c0: 1bf0 703e dc12 b8bd 7c3e 88be acd1 373f
000000d0: a5fb d23d 730c 103f c354 54be 0d49 f53e
000000e0: e834 04bd fc64 a9be 3191 323f cb6d 28bc
000000f0: b3fa ba3e fa74 73bd da04 6b3e a110 c7bd
00000100: ad78 6bbe 550f 333f 2cda f03d b558 103f
00000110: 902a 71be 5473 f73e 9a1f 0cbd 9943 a7be
00000120: 24d0 313f 657a 29bc 1ea6 b93e 4708 5bbd
00000130: 38a4 723e e860 c4bd cf2b 6abe 0bd6 313f
00000140: 1a6e f53d 0b6f 0e3f 44a4 75be 4a20 fc3e
00000150: 6f97 f9bc 466d a8be 3e4a 313f f453 45bc
00000160: 04dd ba3e a487 6abd d26d 653e 61e8 cabd
00000170: 7c53 79be d121 353f 811a ef3d ecea 113f
00000180: bcc3 6ebe 26f3 fe3e 0448 00bd 72df a7be
00000190: 1d86 303f 6836 40bc afc8 b83e 9012 60bd
000001a0: 4768 693e d6e6 c6bd 5682 76be 04a8 363f
000001b0: a1dc f03d c492 103f a466 6abe 4880 fd3e

110 f4 [8, 14]
-0.029895814 -0.34151155 0.68326163 -0.017077094 0.38589483 -0.06300369 0.22889946 -0.08761635
-0.2749346 0.71332616 0.11311396 0.5848723 -0.23007253 0.49453652 -0.030506121 -0.34107822
0.6787974 -0.018433645 0.3853956 -0.060424626 0.22309457 -0.09020595 -0.2744647 0.716333
0.103558436 0.5800121 -0.22416317 0.49460804 -0.03228473 -0.34209266 0.69219 -0.01772676
0.3811401 -0.06405528 0.23824665 -0.08691124 -0.2848622 0.72405857 0.11039162 0.5693887
-0.21237192 0.47881693 -0.033960663 -0.33959067 0.6913896 -0.019226694 0.3769292 -0.06414481
0.2314778 -0.091154456 -0.27612728 0.71817845 0.110493 0.56092393 -0.19721034 0.48469734
-0.03172198 -0.33444974 0.69071615 -0.010449772 0.3686574 -0.059735026 0.22817244 -0.09611387
-0.23919097 0.699076 0.12346633 0.5617552 -0.22756204 0.48808515 -0.033295393 -0.330071
0.6878258 -0.010698454 0.36657804 -0.05390323 0.23440726 -0.09507738 -0.23846611 0.69479954
0.12568235 0.554721 -0.23168336 0.49648744 -0.0297994 -0.33404538 0.6842188 -0.012658518
0.3701914 -0.05700903 0.22218592 -0.09855164 -0.252421 0.70812017 0.12290532 0.5685958
-0.22463943 0.50179845 -0.030733073 -0.3331464 0.6811148 -0.012525292 0.36609095 -0.05465893
0.22649124 -0.09675185 -0.25003526 0.7142447 0.12396271 0.56337476 -0.22013897 0.4997492
00000000: 11e8 f4bc 9ada aebe 3cea 2e3f 43e5 8bbc
00000010: 0294 c53e 1408 81bd 9f64 6a3e 3370 b3bd
00000020: 3ac4 8cbe 8b9c 363f 4ba8 e73d 31ba 153f
00000030: 2298 6bbe e433 fd3e f9e7 f9bc cea1 aebe
00000040: abc5 2d3f 2802 97bc 9252 c53e d07f 77bd
00000050: e772 643e e6bd b8bd a386 8cbe 9961 373f
00000060: 7216 d43d ac7b 143f 088b 65be 443d fd3e
00000070: fe3c 04bd c526 afbe 5d33 313f b637 91bc
00000080: cc24 c33e 6a2f 83bd eef6 733e 85fe b1bd
00000090: 75d9 91be e75b 393f 0015 e23d 75c3 113f
000000a0: 0678 59be 7e27 f53e 561a 0bbd d4de adbe
000000b0: e9fe 303f 4d81 9dbc ddfc c03e 5b5e 83bd
000000c0: 8408 6d3e 30af babd 8e60 8dbe 8bda 373f
000000d0: 274a e23d b698 0f3f 82f1 49be 402a f83e
000000e0: e8ee 01bd ff3c abbe c6d2 303f 8535 2bbc
000000f0: aac0 bc3e b7ac 74bd 09a6 693e 59d7 c4bd
00000100: 7aee 74be a5f6 323f eadb fc3d 30cf 0f3f
00000110: 0606 69be 4ce6 f93e c060 08bd 11ff a8be
00000120: 5a15 303f 9248 2fbc 1eb0 bb3e a2c9 5cbd
00000130: 7508 703e eeb7 c2bd 7630 74be 62de 313f
00000140: e0b2 003e 3202 0e3f 673e 6dbe 9a33 fe3e
00000150: df1d f4bc ff07 abbe f728 2f3f ac65 4fbc
00000160: ba89 bd3e 4d82 69bd b584 633e 71d5 c9bd
00000170: 533d 81be 5d47 353f c9b5 fb3d 7f8f 113f
00000180: e107 66be dd75 003f edc3 fbbc 2a92 aabe
00000190: 8a5d 2e3f e236 4dbc 4670 bb3e 0be2 5fbd
000001a0: 52ed 673e d525 c6bd 9f04 80be bed8 363f
000001b0: 29e0 fd3d 5439 103f 1c6c 61be 21df ff3e

111 f4 [8, 14]
-0.030219836 -0.33285362 0.68154114 -0.01635524 0.3789235 -0.06134002 0.22948253 -0.08512165
-0.26760775 0.7164291 0.11425455 0.5922816 -0.23443249 0.4924192 -0.03048346 -0.33270088
0.6768129 -0.017748028 0.37750217 -0.05918081 0.22367367 -0.08808404 -0.26713255 0.7197039
0.10487904 0.58609056 -0.22895813 0.49304047 -0.03281217 -0.3343188 0.69127023 -0.016989447
0.3736107 -0.06409153 0.24047507 -0.08477451 -0.27990568 0.7289744 0.11092289 0.57586175
-0.21594556 0.4778049 -0.034509912 -0.3313829 0.69010335 -0.018556105 0.36825523 -0.06323467
0.23310907 -0.08836694 -0.27121818 0.72220635 0.11101553 0.5680631 -0.19977103 0.48275104
-0.03163191 -0.3264569 0.68826616 -0.009943163 0.36085898 -0.05853413 0.22890294 -0.09359951
-0.2352209 0.70462286 0.12483124 0.56868327 -0.23156509 0.48534495 -0.033362336 -0.32234192
0.6853876 -0.010112886 0.3582744 -0.052971914 0.23575684 -0.09241514 -0.23446248 0.6997373
0.12688966 0.56100285 -0.23628098 0.49458444 -0.029572764 -0.32606483 0.68161595 -0.011869993
0.3605338 -0.056258094 0.22328186 -0.0961663 -0.24865243 0.712702 0.12334636 0.57342863
-0.22940254 0.4993343 -0.03043479 -0.32519686 0.6785499 -0.0116967615 0.35631225 -0.05379891
0.22715145 -0.09431085 -0.2462322 0.7188297 0.12429055 0.56810945 -0.22501159 0.497406
00000000: 978f f7bc ca6b aabe 7b79 2e3f 6dfb 85bc
00000010: 4302 c23e ac3f 7bbd 78fd 6a3e 4254 aebd
00000020: e203 89be e667 373f 4afe e93d c49f 173f
00000030: 120f 70be 5f1e fc3e 73b8 f9bc c557 aabe
00000040: 9c43 2d3f 5064 91bc f747 c13e 9467 72bd
00000050: b60a 653e 6865 b4bd 99c5 88be 843e 383f
00000060: d2ca d63d 080a 163f 0074 6abe cd6f fc3e
00000070: 0e66 06bd d52b abbe 16f7 303f 742d 8bbc
00000080: e749 bf3e 6c42 83bd 193f 763e 429e adbd
00000090: cc4f 8fbe 119e 3a3f 8a2b e33d ad6b 133f
000000a0: d520 5dbe d8a2 f43e 445a 0dbd 05ab a9be
000000b0: 9daa 303f f902 98bc f38b bc3e 2e81 81bd
000000c0: 25b4 6e3e baf9 b4bd 1cdd 8abe 84e2 383f
000000d0: 1c5c e33d 956c 113f c790 4cbe 252b f73e
000000e0: 7690 01bd 5c25 a7be 3632 303f a6e8 22bc
000000f0: 82c2 b83e 7cc1 6fbd 8865 6a3e 1ab1 bfbd
00000100: bfdd 70be 2a62 343f 85a7 ff3d 3a95 113f
00000110: 661f 6dbe 227f f83e f2a6 08bd 000a a5be
00000120: 9075 2f3f 85b0 25bc be6f b73e 14f9 58bd
00000130: 3e6a 713e 2644 bdbd ef16 70be fc21 333f
00000140: 5def 013e e29d 0f3f a4f3 71be 2c3a fd3e
00000150: 9542 f2bc f8f1 a6be 627e 2e3f 5c7a 42bc
00000160: e397 b83e e36e 66bd 00a4 643e d6f2 c4bd
00000170: be9e 7ebe a373 363f 049d fc3d 38cc 123f
00000180: 80e8 6abe bfa8 ff3e 6152 f9bc 3480 a6be
00000190: 72b5 2d3f c6a3 3fbc 8f6e b63e 3f5c 5cbd
000001a0: 649a 683e 0c26 c1bd 4b24 7cbe 3905 383f
000001b0: 0b8c fe3d 9f6f 113f 7069 66be 00ac fe3e

112 f4 [8, 14]
-0.029294385 -0.3297289 0.6863337 -0.016701417 0.38577157 -0.06020162 0.23005511 -0.08617156
-0.25807804 0.7148416 0.108217075 0.58937055 -0.24419856 0.48333186 -0.029736018 -0.32890737
0.6819482 -0.018221173 0.3848248 -0.05782251 0.2246162 -0.08933131 -0.25826168 0.7189212
0.099145554 0.58389 -0.2375382 0.483473 -0.03182151 -0.33016527 0.6937703 -0.01787549
0.38198805 -0.06248665 0.2418376 -0.08416252 -0.2725814 0.72750205 0.10535191 0.5754555
-0.22453451 0.46806222 -0.03368646 -0.32817787 0.6922983 -0.019164314 0.37670112 -0.061810967
0.23493798 -0.08868241 -0.263906 0.72098404 0.10531257 0.5664871 -0.20836084 0.47251207
-0.031062437 -0.32365617 0.69265336 -0.011605706 0.37035924 -0.057372734 0.2295902 -0.095273145
-0.22993663 0.70344734 0.11900416 0.5669198 -0.23863325 0.47601956 -0.032906696 -0.31940037
0.68988633 -0.011888754 0.36754334 -0.05163446 0.23659246 -0.094411105 -0.2286397 0.69893765
0.12087421 0.5593102 -0.24227282 0.4852116 -0.029092057 -0.32186443 0.6867216 -0.013108179
0.3706565 -0.055334903 0.22329196 -0.09767728 -0.24184878 0.7109732 0.11844797 0.5735536
-0.23584276 0.49035615 -0.02987031 -0.32090467 0.6835967 -0.013149271 0.36676684 -0.05299459
0.22737512 -0.095866464 -0.23993067 0.7169551 0.11930066 0.56859136 -0.23179172 0.4879853
00000000: c7fa efbc 3ad2 a8be 91b3 2f3f 69d1 88bc
00000010: da83 c53e f995 76bd 9193 6b3e b77a b0bd
00000020: ce22 84be dcff 363f eaa0 dd3d fde0 163f
00000030: 300f 7abe 4677 f73e f398 f3bc 8c66 a8be
00000040: 2894 2e3f 9244 95bc c207 c53e 4cd7 6cbd
00000050: ca01 663e 55f3 b6bd e03a 84be 380b 383f
00000060: d30c cb3d d179 153f 373d 73be c689 f73e
00000070: 4657 02bd 6c0b a9be ee9a 313f 9f6f 92bc
00000080: f093 c33e 00f2 7fbd 47a4 773e 665d acbd
00000090: ca8f 8bbe 933d 3a3f bec2 d73d 0d51 133f
000000a0: 60ec 65be daa5 ef3e d0fa 09bd ee06 a8be
000000b0: 763a 313f 7bfe 9cbc f8de c03e 7f2d 7dbd
000000c0: 9593 703e 209f b5bd b01e 87be 6992 383f
000000d0: 1eae d73d 4c05 113f 8b5c 55be 1aed f13e
000000e0: a776 febc 43b6 a5be bb51 313f dc25 3ebc
000000f0: ba9f bd3e acff 6abd b219 6b3e 911e c3bd
00000100: 8274 6bbe 2015 343f 74b8 f33d a821 113f
00000110: 465c 74be d6b8 f33e 2cc9 06bd 7288 a3be
00000120: 649c 303f 0cc9 42bc a42e bc3e a87e 53bd
00000130: 4b45 723e 9c5a c1bd 8720 6abe 94ed 323f
00000140: e68c f73d f42e 0f3f 5e16 78be a86d f83e
00000150: 7752 eebc 6acb a4be fdcc 2f3f b0c3 56bc
00000160: b0c6 bd3e daa6 62bd a6a6 643e 070b c8bd
00000170: 35a7 77be 5702 363f d994 f23d 69d4 123f
00000180: c480 71be f60f fb3e 95b2 f4bc 9e4d a4be
00000190: 3100 2f3f 0a70 57bc ddc8 bb3e db10 59bd
000001a0: 06d5 683e a355 c4bd 63b0 75be 5f8a 373f
000001b0: e853 f43d 348f 113f cf5a 6dbe 36d9 f93e

113 f4 [8, 14]
-0.027451852 -0.33361834 0.68353707 -0.017956935 0.37884977 -0.059170485 0.22726834 -0.08215928
-0.26191735 0.7075537 0.112624004 0.59017056 -0.23489577 0.4814586 -0.028215101 -0.33339888
0.6788779 -0.019387182 0.37868038 -0.05656385 0.2211798 -0.08508575 -0.2633877 0.71151376
0.10329857 0.5843676 -0.22812536 0.48125207 -0.029723769 -0.33469158 0.69349176 -0.019293644
0.37628257 -0.061823063 0.23547113 -0.08061664 -0.27456588 0.71832365 0.11009048 0.5757654
-0.21778324 0.46601844 -0.031595312 -0.3320032 0.691367 -0.020432075 0.3718496 -0.06095432
0.22890349 -0.08485657 -0.26596636 0.7128906 0.11067633 0.56822515 -0.20163783 0.470918
-0.028866937 -0.3272509 0.68947184 -0.011821335 0.36281437 -0.055391744 0.22475564 -0.09077341
-0.22847891 0.6943188 0.123721145 0.56891185 -0.23171827 0.475456 -0.03072814 -0.32289493
0.6867768 -0.01197311 0.3603975 -0.049690496 0.23079976 -0.08969922 -0.22840288 0.6903293
0.12589769 0.5611476 -0.23585501 0.4842965 -0.027039377 -0.32689816 0.6833674 -0.013701759
0.36444995 -0.05376188 0.21887258 -0.09311099 -0.24262425 0.7043644 0.12255002 0.57546616
-0.22845754 0.48879093 -0.0278883 -0.32596704 0.68035406 -0.013486508 0.36026645 -0.051495336
0.22275807 -0.09132231 -0.24050263 0.7104075 0.12342009 0.5705248 -0.22427316 0.4873559
00000000: b5e2 e0bc 06d0 aabe 49fc 2e3f 6c1a 93bc
00000010: 99f8 c13e c05c 72bd 08b9 683e 2043 a8bd
00000020: 081a 86be 3d22 353f 6aa7 e63d 6b15 173f
00000030: 8488 70be be81 f63e 5b23 e7bc 42b3 aabe
00000040: f1ca 2d3f ded1 9ebc 65e2 c13e 7faf 67bd
00000050: f57c 623e 7041 aebd c1da 86be c425 363f
00000060: 338e d33d 1d99 153f b299 69be ac66 f63e
00000070: 437f f3bc b25c abbe ad88 313f b40d 9ebc
00000080: 1ca8 c03e 2e3a 7dbd 581f 713e 561a a5bd
00000090: e693 8cbe 0fe4 373f 1e77 e13d 5c65 133f
000000a0: 9202 5fbe f899 ee3e 166a 01bd 53fc a9be
000000b0: 6dfd 303f 2b61 a7bc 1263 be3e 3dab 79bd
000000c0: ad65 6a3e 48c9 adbd be2c 88be 0080 363f
000000d0: 46aa e23d 3477 113f 267a 4ebe 2a1c f13e
000000e0: 5b7a ecbc 6e8d a7be 3a81 303f 46ae 41bc
000000f0: cec2 b93e 74e2 62bd 5826 663e 69e7 b9bd
00000100: 60f6 69be e0be 313f 8361 fd3d 35a4 113f
00000110: 8e47 6dbe f86e f33e 95b9 fbbc 7c52 a5be
00000120: 9bd0 2f3f dd2a 44bc 0586 b83e 4388 4bbd
00000130: c656 6c3e 3ab4 b7bd 72e2 69be 6cb9 303f
00000140: 53eb 003e 5ea7 0f3f fa83 71be b6f5 f73e
00000150: af81 ddbc 325f a7be 2af1 2e3f 587d 60bc
00000160: 2f99 ba3e 6b35 5cbd 2220 603e fab0 bebd
00000170: 7e72 78be 3a51 343f 81fb fa3d c051 133f
00000180: c6f0 69be ce42 fa3e 0176 e4bc 27e5 a6be
00000190: af2b 2e3f 84f6 5cbc d874 b83e c6ec 52bd
000001a0: b11a 643e 3107 bbbd 5246 76be 44dd 353f
000001b0: acc3 fc3d ea0d 123f dda7 65be b686 f93e
